…
I1130 21:31:21.938148 11185 solver.cpp:91] Creating training net from net file: proto/p_train_val.prototxt
I1130 21:31:21.938580 11185 net.cpp:322] The NetState phase (0) differed from the phase (1) specified by a rule in layer data
I1130 21:31:21.938699 11185 net.cpp:58] Initializing net from parameters: 
name: "pNet"
state {
  phase: TRAIN
}
layer {
  name: "data"
  type: "Python"
  top: "data"
  top: "bbox_target"
  top: "landmark_target"
  top: "label"
  include {
    phase: TRAIN
  }
  python_param {
    module: "layers.data_layer"
    layer: "FaceDataLayer"
  }
}
layer {
  name: "conv1"
  type: "Convolution"
  bottom: "data"
  top: "conv1"
  param {
    lr_mult: 1
    decay_mult: 1
  }
  param {
    lr_mult: 2
    decay_mult: 0
  }
  convolution_param {
    num_output: 10
    kernel_size: 3
    stride: 1
    weight_filler {
      type: "xavier"
    }
    bias_filler {
      type: "constant"
    }
  }
}
layer {
  name: "prelu1"
  type: "PReLU"
  bottom: "conv1"
  top: "conv1"
}
layer {
  name: "pool1"
  type: "Pooling"
  bottom: "conv1"
  top: "pool1"
  pooling_param {
    pool: MAX
    kernel_size: 2
    stride: 2
  }
}
layer {
  name: "conv2"
  type: "Convolution"
  bottom: "pool1"
  top: "conv2"
  param {
    lr_mult: 1
    decay_mult: 1
  }
  param {
    lr_mult: 2
    decay_mult: 0
  }
  convolution_param {
    num_output: 16
    kernel_size: 3
    stride: 1
    weight_filler {
      type: "xavier"
    }
    bias_filler {
      type: "constant"
    }
  }
}
layer {
  name: "prelu2"
  type: "PReLU"
  bottom: "conv2"
  top: "conv2"
}
layer {
  name: "conv3"
  type: "Convolution"
  bottom: "conv2"
  top: "conv3"
  param {
    lr_mult: 1
    decay_mult: 1
  }
  param {
    lr_mult: 2
    decay_mult: 0
  }
  convolution_param {
    num_output: 32
    kernel_size: 3
    stride: 1
    weight_filler {
      type: "xavier"
    }
    bias_filler {
      type: "constant"
    }
  }
}
layer {
  name: "prelu3"
  type: "PReLU"
  bottom: "conv3"
  top: "conv3"
}
layer {
  name: "score"
  type: "Convolution"
  bottom: "conv3"
  top: "score"
  param {
    lr_mult: 1
    decay_mult: 1
  }
  param {
    lr_mult: 2
    decay_mult: 0
  }
  convolution_param {
    num_output: 2
    kernel_size: 1
    stride: 1
    weight_filler {
      type: "xavier"
    }
    bias_filler {
      type: "constant"
    }
  }
}
layer {
  name: "bbox_pred"
  type: "Convolution"
  bottom: "conv3"
  top: "bbox_pred"
  param {
    lr_mult: 1
    decay_mult: 1
  }
  param {
    lr_mult: 2
    decay_mult: 0
  }
  convolution_param {
    num_output: 4
    kernel_size: 1
    stride: 1
    weight_filler {
      type: "xavier"
    }
    bias_filler {
      type: "constant"
    }
  }
}
layer {
  name: "landmark_pred"
  type: "Convolution"
  bottom: "conv3"
  top: "landmark_pred"
  param {
    lr_mult: 1
    decay_mult: 1
  }
  param {
    lr_mult: 2
    decay_mult: 0
  }
  convolution_param {
    num_output: 10
    kernel_size: 1
    stride: 1
    weight_filler {
      type: "xavier"
    }
    bias_filler {
      type: "constant"
    }
  }
}
layer {
  name: "loss"
  type: "JfdaLoss"
  bottom: "score"
  bottom: "bbox_pred"
  bottom: "landmark_pred"
  bottom: "bbox_target"
  bottom: "landmark_target"
  bottom: "label"
  top: "face_cls_loss"
  top: "bbox_reg_loss"
  top: "landmark_reg_loss"
  top: "face_cls_neg_acc"
  top: "face_cls_pos_acc"
  loss_weight: 1
  loss_weight: 0.5
  loss_weight: 0.5
  loss_weight: 0
  loss_weight: 0
  jfda_loss_param {
    drop_loss_rate: 0.3
  }
}
I1130 21:31:21.938796 11185 layer_factory.hpp:77] Creating layer data
I1130 21:31:21.939307 11185 net.cpp:100] Creating Layer data
I1130 21:31:21.939329 11185 net.cpp:408] data -> data
I1130 21:31:21.939347 11185 net.cpp:408] data -> bbox_target
I1130 21:31:21.939354 11185 net.cpp:408] data -> landmark_target
I1130 21:31:21.939362 11185 net.cpp:408] data -> label
I1130 21:31:21.958135 11185 net.cpp:150] Setting up data
I1130 21:31:21.958159 11185 net.cpp:157] Top shape: 4 3 12 12 (1728)
I1130 21:31:21.958165 11185 net.cpp:157] Top shape: 4 4 (16)
I1130 21:31:21.958170 11185 net.cpp:157] Top shape: 4 10 (40)
I1130 21:31:21.958174 11185 net.cpp:157] Top shape: 4 (4)
I1130 21:31:21.958178 11185 net.cpp:165] Memory required for data: 7152
I1130 21:31:21.958183 11185 layer_factory.hpp:77] Creating layer conv1
I1130 21:31:21.958199 11185 net.cpp:100] Creating Layer conv1
I1130 21:31:21.958204 11185 net.cpp:434] conv1 <- data
I1130 21:31:21.958211 11185 net.cpp:408] conv1 -> conv1
I1130 21:31:22.218758 11185 net.cpp:150] Setting up conv1
I1130 21:31:22.218806 11185 net.cpp:157] Top shape: 4 10 10 10 (4000)
I1130 21:31:22.218809 11185 net.cpp:165] Memory required for data: 23152
I1130 21:31:22.218832 11185 layer_factory.hpp:77] Creating layer prelu1
I1130 21:31:22.218847 11185 net.cpp:100] Creating Layer prelu1
I1130 21:31:22.218852 11185 net.cpp:434] prelu1 <- conv1
I1130 21:31:22.218858 11185 net.cpp:395] prelu1 -> conv1 (in-place)
I1130 21:31:22.218945 11185 net.cpp:150] Setting up prelu1
I1130 21:31:22.218950 11185 net.cpp:157] Top shape: 4 10 10 10 (4000)
I1130 21:31:22.218953 11185 net.cpp:165] Memory required for data: 39152
I1130 21:31:22.218960 11185 layer_factory.hpp:77] Creating layer pool1
I1130 21:31:22.218967 11185 net.cpp:100] Creating Layer pool1
I1130 21:31:22.218971 11185 net.cpp:434] pool1 <- conv1
I1130 21:31:22.218976 11185 net.cpp:408] pool1 -> pool1
I1130 21:31:22.219005 11185 net.cpp:150] Setting up pool1
I1130 21:31:22.219018 11185 net.cpp:157] Top shape: 4 10 5 5 (1000)
I1130 21:31:22.219022 11185 net.cpp:165] Memory required for data: 43152
I1130 21:31:22.219024 11185 layer_factory.hpp:77] Creating layer conv2
I1130 21:31:22.219035 11185 net.cpp:100] Creating Layer conv2
I1130 21:31:22.219038 11185 net.cpp:434] conv2 <- pool1
I1130 21:31:22.219043 11185 net.cpp:408] conv2 -> conv2
I1130 21:31:22.220912 11185 net.cpp:150] Setting up conv2
I1130 21:31:22.220927 11185 net.cpp:157] Top shape: 4 16 3 3 (576)
I1130 21:31:22.220932 11185 net.cpp:165] Memory required for data: 45456
I1130 21:31:22.220938 11185 layer_factory.hpp:77] Creating layer prelu2
I1130 21:31:22.220947 11185 net.cpp:100] Creating Layer prelu2
I1130 21:31:22.220950 11185 net.cpp:434] prelu2 <- conv2
I1130 21:31:22.220954 11185 net.cpp:395] prelu2 -> conv2 (in-place)
I1130 21:31:22.221027 11185 net.cpp:150] Setting up prelu2
I1130 21:31:22.221034 11185 net.cpp:157] Top shape: 4 16 3 3 (576)
I1130 21:31:22.221035 11185 net.cpp:165] Memory required for data: 47760
I1130 21:31:22.221040 11185 layer_factory.hpp:77] Creating layer conv3
I1130 21:31:22.221050 11185 net.cpp:100] Creating Layer conv3
I1130 21:31:22.221052 11185 net.cpp:434] conv3 <- conv2
I1130 21:31:22.221060 11185 net.cpp:408] conv3 -> conv3
I1130 21:31:22.222937 11185 net.cpp:150] Setting up conv3
I1130 21:31:22.222952 11185 net.cpp:157] Top shape: 4 32 1 1 (128)
I1130 21:31:22.222956 11185 net.cpp:165] Memory required for data: 48272
I1130 21:31:22.222962 11185 layer_factory.hpp:77] Creating layer prelu3
I1130 21:31:22.222967 11185 net.cpp:100] Creating Layer prelu3
I1130 21:31:22.222973 11185 net.cpp:434] prelu3 <- conv3
I1130 21:31:22.222978 11185 net.cpp:395] prelu3 -> conv3 (in-place)
I1130 21:31:22.223052 11185 net.cpp:150] Setting up prelu3
I1130 21:31:22.223057 11185 net.cpp:157] Top shape: 4 32 1 1 (128)
I1130 21:31:22.223060 11185 net.cpp:165] Memory required for data: 48784
I1130 21:31:22.223070 11185 layer_factory.hpp:77] Creating layer conv3_prelu3_0_split
I1130 21:31:22.223085 11185 net.cpp:100] Creating Layer conv3_prelu3_0_split
I1130 21:31:22.223089 11185 net.cpp:434] conv3_prelu3_0_split <- conv3
I1130 21:31:22.223093 11185 net.cpp:408] conv3_prelu3_0_split -> conv3_prelu3_0_split_0
I1130 21:31:22.223099 11185 net.cpp:408] conv3_prelu3_0_split -> conv3_prelu3_0_split_1
I1130 21:31:22.223104 11185 net.cpp:408] conv3_prelu3_0_split -> conv3_prelu3_0_split_2
I1130 21:31:22.223148 11185 net.cpp:150] Setting up conv3_prelu3_0_split
I1130 21:31:22.223155 11185 net.cpp:157] Top shape: 4 32 1 1 (128)
I1130 21:31:22.223158 11185 net.cpp:157] Top shape: 4 32 1 1 (128)
I1130 21:31:22.223161 11185 net.cpp:157] Top shape: 4 32 1 1 (128)
I1130 21:31:22.223163 11185 net.cpp:165] Memory required for data: 50320
I1130 21:31:22.223166 11185 layer_factory.hpp:77] Creating layer score
I1130 21:31:22.223176 11185 net.cpp:100] Creating Layer score
I1130 21:31:22.223179 11185 net.cpp:434] score <- conv3_prelu3_0_split_0
I1130 21:31:22.223186 11185 net.cpp:408] score -> score
I1130 21:31:22.224031 11185 net.cpp:150] Setting up score
I1130 21:31:22.224042 11185 net.cpp:157] Top shape: 4 2 1 1 (8)
I1130 21:31:22.224047 11185 net.cpp:165] Memory required for data: 50352
I1130 21:31:22.224053 11185 layer_factory.hpp:77] Creating layer bbox_pred
I1130 21:31:22.224062 11185 net.cpp:100] Creating Layer bbox_pred
I1130 21:31:22.224066 11185 net.cpp:434] bbox_pred <- conv3_prelu3_0_split_1
I1130 21:31:22.224081 11185 net.cpp:408] bbox_pred -> bbox_pred
I1130 21:31:22.224936 11185 net.cpp:150] Setting up bbox_pred
I1130 21:31:22.224947 11185 net.cpp:157] Top shape: 4 4 1 1 (16)
I1130 21:31:22.224951 11185 net.cpp:165] Memory required for data: 50416
I1130 21:31:22.224956 11185 layer_factory.hpp:77] Creating layer landmark_pred
I1130 21:31:22.224967 11185 net.cpp:100] Creating Layer landmark_pred
I1130 21:31:22.224972 11185 net.cpp:434] landmark_pred <- conv3_prelu3_0_split_2
I1130 21:31:22.224978 11185 net.cpp:408] landmark_pred -> landmark_pred
I1130 21:31:22.225836 11185 net.cpp:150] Setting up landmark_pred
I1130 21:31:22.225853 11185 net.cpp:157] Top shape: 4 10 1 1 (40)
I1130 21:31:22.225857 11185 net.cpp:165] Memory required for data: 50576
I1130 21:31:22.225863 11185 layer_factory.hpp:77] Creating layer loss
I1130 21:31:22.225878 11185 net.cpp:100] Creating Layer loss
I1130 21:31:22.225881 11185 net.cpp:434] loss <- score
I1130 21:31:22.225885 11185 net.cpp:434] loss <- bbox_pred
I1130 21:31:22.225889 11185 net.cpp:434] loss <- landmark_pred
I1130 21:31:22.225893 11185 net.cpp:434] loss <- bbox_target
…
[2016-11-30 22:00:20,110][INFO] remove data/rnet_positive_train
[2016-11-30 22:00:20,110][INFO] remove data/rnet_negative_train
[2016-11-30 22:00:20,111][INFO] remove data/rnet_part_train
[2016-11-30 22:00:20,111][INFO] fill queues
WARNING: Logging before InitGoogleLogging() is written to STDERR
I1130 22:00:22.839839 11664 net.cpp:58] Initializing net from parameters: 
name: "pNet"
state {
  phase: TEST
  level: 0
}
layer {
  name: "data"
  type: "Input"
  top: "data"
  input_param {
    shape {
      dim: 1
      dim: 3
      dim: 12
      dim: 12
    }
  }
}
layer {
  name: "conv1"
  type: "Convolution"
  bottom: "data"
  top: "conv1"
  convolution_param {
    num_output: 10
    kernel_size: 3
    stride: 1
  }
}
layer {
  name: "prelu1"
  type: "PReLU"
  bottom: "conv1"
  top: "conv1"
}
layer {
  name: "pool1"
  type: "Pooling"
  bottom: "conv1"
  top: "pool1"
  pooling_param {
    pool: MAX
    kernel_size: 2
    stride: 2
  }
}
layer {
  name: "conv2"
  type: "Convolution"
  bottom: "pool1"
  top: "conv2"
  convolution_param {
    num_output: 16
    kernel_size: 3
    stride: 1
  }
}
layer {
  name: "prelu2"
  type: "PReLU"
  bottom: "conv2"
  top: "conv2"
}
layer {
  name: "conv3"
  type: "Convolution"
  bottom: "conv2"
  top: "conv3"
  convolution_param {
    num_output: 32
    kernel_size: 3
    stride: 1
  }
}
layer {
  name: "prelu3"
  type: "PReLU"
  bottom: "conv3"
  top: "conv3"
}
layer {
  name: "score"
  type: "Convolution"
  bottom: "conv3"
  top: "score"
  convolution_param {
    num_output: 2
    kernel_size: 1
    stride: 1
  }
}
layer {
  name: "prob"
  type: "Softmax"
  bottom: "score"
  top: "prob"
  softmax_param {
    axis: 1
  }
}
layer {
  name: "bbox_pred"
  type: "Convolution"
  bottom: "conv3"
  top: "bbox_pred"
  convolution_param {
    num_output: 4
    kernel_size: 1
    stride: 1
  }
}
layer {
  name: "landmark_pred"
  type: "Convolution"
  bottom: "conv3"
  top: "landmark_pred"
  convolution_param {
    num_output: 10
    kernel_size: 1
    stride: 1
  }
}
I1130 22:00:22.839948 11664 layer_factory.hpp:77] Creating layer data
I1130 22:00:22.839963 11664 net.cpp:100] Creating Layer data
I1130 22:00:22.839970 11664 net.cpp:408] data -> data
I1130 22:00:22.855528 11664 net.cpp:150] Setting up data
I1130 22:00:22.855577 11664 net.cpp:157] Top shape: 1 3 12 12 (432)
I1130 22:00:22.855581 11664 net.cpp:165] Memory required for data: 1728
I1130 22:00:22.855588 11664 layer_factory.hpp:77] Creating layer conv1
I1130 22:00:22.855607 11664 net.cpp:100] Creating Layer conv1
I1130 22:00:22.855612 11664 net.cpp:434] conv1 <- data
I1130 22:00:22.855618 11664 net.cpp:408] conv1 -> conv1
WARNING: Logging before InitGoogleLogging() is written to STDERR
I1130 22:00:22.884469 11665 net.cpp:58] Initializing net from parameters: 
name: "pNet"
state {
  phase: TEST
  level: 0
}
layer {
  name: "data"
  type: "Input"
  top: "data"
  input_param {
    shape {
      dim: 1
      dim: 3
      dim: 12
      dim: 12
    }
  }
}
layer {
  name: "conv1"
  type: "Convolution"
  bottom: "data"
  top: "conv1"
  convolution_param {
    num_output: 10
    kernel_size: 3
    stride: 1
  }
}
layer {
  name: "prelu1"
  type: "PReLU"
  bottom: "conv1"
  top: "conv1"
}
layer {
  name: "pool1"
  type: "Pooling"
  bottom: "conv1"
  top: "pool1"
  pooling_param {
    pool: MAX
    kernel_size: 2
    stride: 2
  }
}
layer {
  name: "conv2"
  type: "Convolution"
  bottom: "pool1"
  top: "conv2"
  convolution_param {
    num_output: 16
    kernel_size: 3
    stride: 1
  }
}
layer {
  name: "prelu2"
  type: "PReLU"
  bottom: "conv2"
  top: "conv2"
}
layer {
  name: "conv3"
  type: "Convolution"
  bottom: "conv2"
  top: "conv3"
  convolution_param {
    num_output: 32
    kernel_size: 3
    stride: 1
  }
}
layer {
  name: "prelu3"
  type: "PReLU"
  bottom: "conv3"
  top: "conv3"
}
layer {
  name: "score"
  type: "Convolution"
  bottom: "conv3"
  top: "score"
  convolution_param {
    num_output: 2
    kernel_size: 1
    stride: 1
  }
}
layer {
  name: "prob"
  type: "Softmax"
  bottom: "score"
  top: "prob"
  softmax_param {
    axis: 1
  }
}
layer {
  name: "bbox_pred"
  type: "Convolution"
  bottom: "conv3"
  top: "bbox_pred"
  convolution_param {
    num_output: 4
    kernel_size: 1
    stride: 1
  }
}
layer {
  name: "landmark_pred"
  type: "Convolution"
  bottom: "conv3"
  top: "landmark_pred"
  convolution_param {
    num_output: 10
    kernel_size: 1
    stride: 1
  }
}
I1130 22:00:22.884606 11665 layer_factory.hpp:77] Creating layer data
I1130 22:00:22.884629 11665 net.cpp:100] Creating Layer data
I1130 22:00:22.884635 11665 net.cpp:408] data -> data
WARNING: Logging before InitGoogleLogging() is written to STDERR
I1130 22:00:22.899668 11663 net.cpp:58] Initializing net from parameters: 
name: "pNet"
state {
  phase: TEST
  level: 0
}
layer {
  name: "data"
  type: "Input"
  top: "data"
  input_param {
    shape {
      dim: 1
      dim: 3
      dim: 12
      dim: 12
    }
  }
}
layer {
  name: "conv1"
  type: "Convolution"
  bottom: "data"
  top: "conv1"
  convolution_param {
    num_output: 10
    kernel_size: 3
    stride: 1
  }
}
layer {
  name: "prelu1"
  type: "PReLU"
  bottom: "conv1"
  top: "conv1"
}
layer {
  name: "pool1"
  type: "Pooling"
  bottom: "conv1"
  top: "pool1"
  pooling_param {
    pool: MAX
    kernel_size: 2
    stride: 2
  }
}
layer {
  name: "conv2"
  type: "Convolution"
  bottom: "pool1"
  top: "conv2"
  convolution_param {
    num_output: 16
    kernel_size: 3
    stride: 1
  }
}
layer {
  name: "prelu2"
  type: "PReLU"
  bottom: "conv2"
  top: "conv2"
}
layer {
  name: "conv3"
  type: "Convolution"
  bottom: "conv2"
  top: "conv3"
  convolution_param {
    num_output: 32
    kernel_size: 3
    stride: 1
  }
}
layer {
  name: "prelu3"
  type: "PReLU"
  bottom: "conv3"
  top: "conv3"
}
layer {
  name: "score"
  type: "Convolution"
  bottom: "conv3"
  top: "score"
  convolution_param {
    num_output: 2
    kernel_size: 1
    stride: 1
  }
}
layer {
  name: "prob"
  type: "Softmax"
  bottom: "score"
  top: "prob"
  softmax_param {
    axis: 1
  }
}
layer {
  name: "bbox_pred"
  type: "Convolution"
  bottom: "conv3"
  top: "bbox_pred"
  convolution_param {
    num_output: 4
    kernel_size: 1
    stride: 1
  }
}
layer {
  name: "landmark_pred"
  type: "Convolution"
  bottom: "conv3"
  top: "landmark_pred"
  convolution_param {
    num_output: 10
    kernel_size: 1
    stride: 1
  }
}
I1130 22:00:22.899849 11663 layer_factory.hpp:77] Creating layer data
I1130 22:00:22.899879 11663 net.cpp:100] Creating Layer data
I1130 22:00:22.899888 11663 net.cpp:408] data -> data
I1130 22:00:22.903762 11665 net.cpp:150] Setting up data
I1130 22:00:22.903825 11665 net.cpp:157] Top shape: 1 3 12 12 (432)
I1130 22:00:22.903831 11665 net.cpp:165] Memory required for data: 1728
I1130 22:00:22.903841 11665 layer_factory.hpp:77] Creating layer conv1
I1130 22:00:22.903875 11665 net.cpp:100] Creating Layer conv1
I1130 22:00:22.903882 11665 net.cpp:434] conv1 <- data
I1130 22:00:22.903889 11665 net.cpp:408] conv1 -> conv1
WARNING: Logging before InitGoogleLogging() is written to STDERR
I1130 22:00:22.916187 11666 net.cpp:58] Initializing net from parameters: 
name: "pNet"
state {
  phase: TEST
  level: 0
}
layer {
  name: "data"
  type: "Input"
  top: "data"
  input_param {
    shape {
      dim: 1
      dim: 3
      dim: 12
      dim: 12
    }
  }
}
layer {
  name: "conv1"
  type: "Convolution"
  bottom: "data"
  top: "conv1"
  convolution_param {
    num_output: 10
    kernel_size: 3
    stride: 1
  }
}
layer {
  name: "prelu1"
  type: "PReLU"
  bottom: "conv1"
  top: "conv1"
}
layer {
  name: "pool1"
  type: "Pooling"
  bottom: "conv1"
  top: "pool1"
  pooling_param {
    pool: MAX
    kernel_size: 2
    stride: 2
  }
}
layer {
  name: "conv2"
  type: "Convolution"
  bottom: "pool1"
  top: "conv2"
  convolution_param {
    num_output: 16
    kernel_size: 3
    stride: 1
  }
}
layer {
  name: "prelu2"
  type: "PReLU"
  bottom: "conv2"
  top: "conv2"
}
layer {
  name: "conv3"
  type: "Convolution"
  bottom: "conv2"
  top: "conv3"
  convolution_param {
    num_output: 32
    kernel_size: 3
    stride: 1
  }
}
layer {
  name: "prelu3"
  type: "PReLU"
  bottom: "conv3"
  top: "conv3"
}
layer {
  name: "score"
  type: "Convolution"
  bottom: "conv3"
  top: "score"
  convolution_param {
    num_output: 2
    kernel_size: 1
    stride: 1
  }
}
layer {
  name: "prob"
  type: "Softmax"
  bottom: "score"
  top: "prob"
  softmax_param {
    axis: 1
  }
}
layer {
  name: "bbox_pred"
  type: "Convolution"
  bottom: "conv3"
  top: "bbox_pred"
  convolution_param {
    num_output: 4
    kernel_size: 1
    stride: 1
  }
}
layer {
  name: "landmark_pred"
  type: "Convolution"
  bottom: "conv3"
  top: "landmark_pred"
  convolution_param {
    num_output: 10
    kernel_size: 1
    stride: 1
  }
}
I1130 22:00:22.916332 11666 layer_factory.hpp:77] Creating layer data
I1130 22:00:22.916350 11666 net.cpp:100] Creating Layer data
I1130 22:00:22.916359 11666 net.cpp:408] data -> data
I1130 22:00:22.948809 11663 net.cpp:150] Setting up data
I1130 22:00:22.948839 11663 net.cpp:157] Top shape: 1 3 12 12 (432)
I1130 22:00:22.948845 11663 net.cpp:165] Memory required for data: 1728
I1130 22:00:22.948851 11663 layer_factory.hpp:77] Creating layer conv1
I1130 22:00:22.948866 11663 net.cpp:100] Creating Layer conv1
I1130 22:00:22.948871 11663 net.cpp:434] conv1 <- data
I1130 22:00:22.948879 11663 net.cpp:408] conv1 -> conv1
I1130 22:00:22.955147 11666 net.cpp:150] Setting up data
I1130 22:00:22.955198 11666 net.cpp:157] Top shape: 1 3 12 12 (432)
I1130 22:00:22.955204 11666 net.cpp:165] Memory required for data: 1728
I1130 22:00:22.955211 11666 layer_factory.hpp:77] Creating layer conv1
I1130 22:00:22.955231 11666 net.cpp:100] Creating Layer conv1
I1130 22:00:22.955236 11666 net.cpp:434] conv1 <- data
I1130 22:00:22.955245 11666 net.cpp:408] conv1 -> conv1
I1130 22:00:23.105929 11664 net.cpp:150] Setting up conv1
I1130 22:00:23.105993 11664 net.cpp:157] Top shape: 1 10 10 10 (1000)
I1130 22:00:23.105998 11664 net.cpp:165] Memory required for data: 5728
I1130 22:00:23.106022 11664 layer_factory.hpp:77] Creating layer prelu1
I1130 22:00:23.106040 11664 net.cpp:100] Creating Layer prelu1
I1130 22:00:23.106045 11664 net.cpp:434] prelu1 <- conv1
I1130 22:00:23.106051 11664 net.cpp:395] prelu1 -> conv1 (in-place)
I1130 22:00:23.106169 11664 net.cpp:150] Setting up prelu1
I1130 22:00:23.106179 11664 net.cpp:157] Top shape: 1 10 10 10 (1000)
I1130 22:00:23.106183 11664 net.cpp:165] Memory required for data: 9728
I1130 22:00:23.106189 11664 layer_factory.hpp:77] Creating layer pool1
I1130 22:00:23.106200 11664 net.cpp:100] Creating Layer pool1
I1130 22:00:23.106204 11664 net.cpp:434] pool1 <- conv1
I1130 22:00:23.106211 11664 net.cpp:408] pool1 -> pool1
I1130 22:00:23.106252 11664 net.cpp:150] Setting up pool1
I1130 22:00:23.106259 11664 net.cpp:157] Top shape: 1 10 5 5 (250)
I1130 22:00:23.106276 11664 net.cpp:165] Memory required for data: 10728
I1130 22:00:23.106278 11664 layer_factory.hpp:77] Creating layer conv2
I1130 22:00:23.106292 11664 net.cpp:100] Creating Layer conv2
I1130 22:00:23.106294 11664 net.cpp:434] conv2 <- pool1
I1130 22:00:23.106302 11664 net.cpp:408] conv2 -> conv2
I1130 22:00:23.108693 11664 net.cpp:150] Setting up conv2
I1130 22:00:23.108712 11664 net.cpp:157] Top shape: 1 16 3 3 (144)
I1130 22:00:23.108716 11664 net.cpp:165] Memory required for data: 11304
I1130 22:00:23.108726 11664 layer_factory.hpp:77] Creating layer prelu2
I1130 22:00:23.108731 11664 net.cpp:100] Creating Layer prelu2
I1130 22:00:23.108734 11664 net.cpp:434] prelu2 <- conv2
I1130 22:00:23.108741 11664 net.cpp:395] prelu2 -> conv2 (in-place)
I1130 22:00:23.108834 11664 net.cpp:150] Setting up prelu2
I1130 22:00:23.108840 11664 net.cpp:157] Top shape: 1 16 3 3 (144)
I1130 22:00:23.108844 11664 net.cpp:165] Memory required for data: 11880
I1130 22:00:23.108847 11664 layer_factory.hpp:77] Creating layer conv3
I1130 22:00:23.108858 11664 net.cpp:100] Creating Layer conv3
I1130 22:00:23.108861 11664 net.cpp:434] conv3 <- conv2
I1130 22:00:23.108866 11664 net.cpp:408] conv3 -> conv3
I1130 22:00:23.111030 11664 net.cpp:150] Setting up conv3
I1130 22:00:23.111047 11664 net.cpp:157] Top shape: 1 32 1 1 (32)
I1130 22:00:23.111050 11664 net.cpp:165] Memory required for data: 12008
I1130 22:00:23.111057 11664 layer_factory.hpp:77] Creating layer prelu3
I1130 22:00:23.111070 11664 net.cpp:100] Creating Layer prelu3
I1130 22:00:23.111076 11664 net.cpp:434] prelu3 <- conv3
I1130 22:00:23.111083 11664 net.cpp:395] prelu3 -> conv3 (in-place)
I1130 22:00:23.111161 11664 net.cpp:150] Setting up prelu3
I1130 22:00:23.111167 11664 net.cpp:157] Top shape: 1 32 1 1 (32)
I1130 22:00:23.111171 11664 net.cpp:165] Memory required for data: 12136
I1130 22:00:23.111181 11664 layer_factory.hpp:77] Creating layer conv3_prelu3_0_split
I1130 22:00:23.111189 11664 net.cpp:100] Creating Layer conv3_prelu3_0_split
I1130 22:00:23.111193 11664 net.cpp:434] conv3_prelu3_0_split <- conv3
I1130 22:00:23.111199 11664 net.cpp:408] conv3_prelu3_0_split -> conv3_prelu3_0_split_0
I1130 22:00:23.111205 11664 net.cpp:408] conv3_prelu3_0_split -> conv3_prelu3_0_split_1
I1130 22:00:23.111210 11664 net.cpp:408] conv3_prelu3_0_split -> conv3_prelu3_0_split_2
I1130 22:00:23.111254 11664 net.cpp:150] Setting up conv3_prelu3_0_split
I1130 22:00:23.111259 11664 net.cpp:157] Top shape: 1 32 1 1 (32)
I1130 22:00:23.111263 11664 net.cpp:157] Top shape: 1 32 1 1 (32)
I1130 22:00:23.111266 11664 net.cpp:157] Top shape: 1 32 1 1 (32)
I1130 22:00:23.111269 11664 net.cpp:165] Memory required for data: 12520
I1130 22:00:23.111273 11664 layer_factory.hpp:77] Creating layer score
I1130 22:00:23.111291 11664 net.cpp:100] Creating Layer score
I1130 22:00:23.111294 11664 net.cpp:434] score <- conv3_prelu3_0_split_0
I1130 22:00:23.111299 11664 net.cpp:408] score -> score
I1130 22:00:23.112185 11664 net.cpp:150] Setting up score
I1130 22:00:23.112200 11664 net.cpp:157] Top shape: 1 2 1 1 (2)
I1130 22:00:23.112203 11664 net.cpp:165] Memory required for data: 12528
I1130 22:00:23.112210 11664 layer_factory.hpp:77] Creating layer prob
I1130 22:00:23.112218 11664 net.cpp:100] Creating Layer prob
I1130 22:00:23.112222 11664 net.cpp:434] prob <- score
I1130 22:00:23.112229 11664 net.cpp:408] prob -> prob
I1130 22:00:23.112434 11664 net.cpp:150] Setting up prob
I1130 22:00:23.112443 11664 net.cpp:157] Top shape: 1 2 1 1 (2)
I1130 22:00:23.112447 11664 net.cpp:165] Memory required for data: 12536
I1130 22:00:23.112450 11664 layer_factory.hpp:77] Creating layer bbox_pred
I1130 22:00:23.112460 11664 net.cpp:100] Creating Layer bbox_pred
I1130 22:00:23.112463 11664 net.cpp:434] bbox_pred <- conv3_prelu3_0_split_1
I1130 22:00:23.112468 11664 net.cpp:408] bbox_pred -> bbox_pred
I1130 22:00:23.113384 11664 net.cpp:150] Setting up bbox_pred
I1130 22:00:23.113399 11664 net.cpp:157] Top shape: 1 4 1 1 (4)
I1130 22:00:23.113402 11664 net.cpp:165] Memory required for data: 12552
I1130 22:00:23.113418 11664 layer_factory.hpp:77] Creating layer landmark_pred
I1130 22:00:23.113428 11664 net.cpp:100] Creating Layer landmark_pred
I1130 22:00:23.113432 11664 net.cpp:434] landmark_pred <- conv3_prelu3_0_split_2
I1130 22:00:23.113437 11664 net.cpp:408] landmark_pred -> landmark_pred
I1130 22:00:23.114353 11664 net.cpp:150] Setting up landmark_pred
I1130 22:00:23.114372 11664 net.cpp:157] Top shape: 1 10 1 1 (10)
I1130 22:00:23.114375 11664 net.cpp:165] Memory required for data: 12592
I1130 22:00:23.114382 11664 net.cpp:228] landmark_pred does not need backward computation.
I1130 22:00:23.114385 11664 net.cpp:228] bbox_pred does not need backward computation.
I1130 22:00:23.114388 11664 net.cpp:228] prob does not need backward computation.
I1130 22:00:23.114392 11664 net.cpp:228] score does not need backward computation.
…
I1130 22:00:23.114415 11664 net.cpp:228] conv1 does not need backward computation.
I1130 22:00:23.114418 11664 net.cpp:228] data does not need backward computation.
I1130 22:00:23.114421 11664 net.cpp:270] This network produces output bbox_pred
I1130 22:00:23.114424 11664 net.cpp:270] This network produces output landmark_pred
I1130 22:00:23.114428 11664 net.cpp:270] This network produces output prob
I1130 22:00:23.114439 11664 net.cpp:283] Network initialization done.
I1130 22:00:23.114694 11664 net.cpp:761] Ignoring source layer loss
I1130 22:00:23.194190 11665 net.cpp:150] Setting up conv1
I1130 22:00:23.194243 11665 net.cpp:157] Top shape: 1 10 10 10 (1000)
I1130 22:00:23.194248 11665 net.cpp:165] Memory required for data: 5728
I1130 22:00:23.194274 11665 layer_factory.hpp:77] Creating layer prelu1
I1130 22:00:23.194290 11665 net.cpp:100] Creating Layer prelu1
I1130 22:00:23.194296 11665 net.cpp:434] prelu1 <- conv1
I1130 22:00:23.194303 11665 net.cpp:395] prelu1 -> conv1 (in-place)
I1130 22:00:23.194420 11665 net.cpp:150] Setting up prelu1
I1130 22:00:23.194428 11665 net.cpp:157] Top shape: 1 10 10 10 (1000)
I1130 22:00:23.194432 11665 net.cpp:165] Memory required for data: 9728
I1130 22:00:23.194439 11665 layer_factory.hpp:77] Creating layer pool1
I1130 22:00:23.194450 11665 net.cpp:100] Creating Layer pool1
I1130 22:00:23.194454 11665 net.cpp:434] pool1 <- conv1
I1130 22:00:23.194463 11665 net.cpp:408] pool1 -> pool1
I1130 22:00:23.194502 11665 net.cpp:150] Setting up pool1
I1130 22:00:23.194510 11665 net.cpp:157] Top shape: 1 10 5 5 (250)
I1130 22:00:23.194514 11665 net.cpp:165] Memory required for data: 10728
I1130 22:00:23.194517 11665 layer_factory.hpp:77] Creating layer conv2
I1130 22:00:23.194531 11665 net.cpp:100] Creating Layer conv2
I1130 22:00:23.194535 11665 net.cpp:434] conv2 <- pool1
I1130 22:00:23.194542 11665 net.cpp:408] conv2 -> conv2
I1130 22:00:23.196725 11665 net.cpp:150] Setting up conv2
I1130 22:00:23.196748 11665 net.cpp:157] Top shape: 1 16 3 3 (144)
I1130 22:00:23.196753 11665 net.cpp:165] Memory required for data: 11304
I1130 22:00:23.196764 11665 layer_factory.hpp:77] Creating layer prelu2
I1130 22:00:23.196771 11665 net.cpp:100] Creating Layer prelu2
I1130 22:00:23.196776 11665 net.cpp:434] prelu2 <- conv2
I1130 22:00:23.196784 11665 net.cpp:395] prelu2 -> conv2 (in-place)
I1130 22:00:23.196878 11665 net.cpp:150] Setting up prelu2
I1130 22:00:23.196887 11665 net.cpp:157] Top shape: 1 16 3 3 (144)
I1130 22:00:23.196890 11665 net.cpp:165] Memory required for data: 11880
I1130 22:00:23.196895 11665 layer_factory.hpp:77] Creating layer conv3
I1130 22:00:23.196907 11665 net.cpp:100] Creating Layer conv3
I1130 22:00:23.196918 11665 net.cpp:434] conv3 <- conv2
I1130 22:00:23.196925 11665 net.cpp:408] conv3 -> conv3
I1130 22:00:23.199115 11665 net.cpp:150] Setting up conv3
I1130 22:00:23.199139 11665 net.cpp:157] Top shape: 1 32 1 1 (32)
I1130 22:00:23.199144 11665 net.cpp:165] Memory required for data: 12008
I1130 22:00:23.199152 11665 layer_factory.hpp:77] Creating layer prelu3
I1130 22:00:23.199162 11665 net.cpp:100] Creating Layer prelu3
I1130 22:00:23.199167 11665 net.cpp:434] prelu3 <- conv3
I1130 22:00:23.199174 11665 net.cpp:395] prelu3 -> conv3 (in-place)
I1130 22:00:23.199265 11665 net.cpp:150] Setting up prelu3
I1130 22:00:23.199272 11665 net.cpp:157] Top shape: 1 32 1 1 (32)
I1130 22:00:23.199275 11665 net.cpp:165] Memory required for data: 12136
I1130 22:00:23.199285 11665 layer_factory.hpp:77] Creating layer conv3_prelu3_0_split
I1130 22:00:23.199296 11665 net.cpp:100] Creating Layer conv3_prelu3_0_split
I1130 22:00:23.199301 11665 net.cpp:434] conv3_prelu3_0_split <- conv3
I1130 22:00:23.199307 11665 net.cpp:408] conv3_prelu3_0_split -> conv3_prelu3_0_split_0
I1130 22:00:23.199314 11665 net.cpp:408] conv3_prelu3_0_split -> conv3_prelu3_0_split_1
I1130 22:00:23.199319 11665 net.cpp:408] conv3_prelu3_0_split -> conv3_prelu3_0_split_2
I1130 22:00:23.199368 11665 net.cpp:150] Setting up conv3_prelu3_0_split
I1130 22:00:23.199374 11665 net.cpp:157] Top shape: 1 32 1 1 (32)
I1130 22:00:23.199379 11665 net.cpp:157] Top shape: 1 32 1 1 (32)
I1130 22:00:23.199383 11665 net.cpp:157] Top shape: 1 32 1 1 (32)
I1130 22:00:23.199386 11665 net.cpp:165] Memory required for data: 12520
I1130 22:00:23.199389 11665 layer_factory.hpp:77] Creating layer score
I1130 22:00:23.199400 11665 net.cpp:100] Creating Layer score
I1130 22:00:23.199404 11665 net.cpp:434] score <- conv3_prelu3_0_split_0
I1130 22:00:23.199410 11665 net.cpp:408] score -> score
I1130 22:00:23.200435 11665 net.cpp:150] Setting up score
I1130 22:00:23.200454 11665 net.cpp:157] Top shape: 1 2 1 1 (2)
I1130 22:00:23.200459 11665 net.cpp:165] Memory required for data: 12528
I1130 22:00:23.200466 11665 layer_factory.hpp:77] Creating layer prob
I1130 22:00:23.200476 11665 net.cpp:100] Creating Layer prob
I1130 22:00:23.200481 11665 net.cpp:434] prob <- score
I1130 22:00:23.200489 11665 net.cpp:408] prob -> prob
I1130 22:00:23.200722 11665 net.cpp:150] Setting up prob
I1130 22:00:23.200733 11665 net.cpp:157] Top shape: 1 2 1 1 (2)
I1130 22:00:23.200736 11665 net.cpp:165] Memory required for data: 12536
I1130 22:00:23.200740 11665 layer_factory.hpp:77] Creating layer bbox_pred
I1130 22:00:23.200752 11665 net.cpp:100] Creating Layer bbox_pred
I1130 22:00:23.200757 11665 net.cpp:434] bbox_pred <- conv3_prelu3_0_split_1
I1130 22:00:23.200762 11665 net.cpp:408] bbox_pred -> bbox_pred
I1130 22:00:23.201814 11665 net.cpp:150] Setting up bbox_pred
I1130 22:00:23.201831 11665 net.cpp:157] Top shape: 1 4 1 1 (4)
I1130 22:00:23.201836 11665 net.cpp:165] Memory required for data: 12552
I1130 22:00:23.201844 11665 layer_factory.hpp:77] Creating layer landmark_pred
I1130 22:00:23.201855 11665 net.cpp:100] Creating Layer landmark_pred
I1130 22:00:23.201859 11665 net.cpp:434] landmark_pred <- conv3_prelu3_0_split_2
I1130 22:00:23.201866 11665 net.cpp:408] landmark_pred -> landmark_pred
I1130 22:00:23.202925 11665 net.cpp:150] Setting up landmark_pred
I1130 22:00:23.202944 11665 net.cpp:157] Top shape: 1 10 1 1 (10)
I1130 22:00:23.202950 11665 net.cpp:165] Memory required for data: 12592
I1130 22:00:23.202957 11665 net.cpp:228] landmark_pred does not need backward computation.
I1130 22:00:23.202962 11665 net.cpp:228] bbox_pred does not need backward computation.
I1130 22:00:23.202966 11665 net.cpp:228] prob does not need backward computation.
I1130 22:00:23.202970 11665 net.cpp:228] score does not need backward computation.
…
I1130 22:09:34.956077 11845 solver.cpp:91] Creating training net from net file: proto/r_train_val.prototxt
I1130 22:09:34.956425 11845 net.cpp:322] The NetState phase (0) differed from the phase (1) specified by a rule in layer data
I1130 22:09:34.956526 11845 net.cpp:58] Initializing net from parameters: 
name: "rNet"
state {
  phase: TRAIN
}
layer {
  name: "data"
  type: "Python"
  top: "data"
  top: "bbox_target"
  top: "landmark_target"
  top: "label"
  include {
    phase: TRAIN
  }
  python_param {
    module: "layers.data_layer"
    layer: "FaceDataLayer"
  }
}
layer {
  name: "conv1"
  type: "Convolution"
  bottom: "data"
  top: "conv1"
  param {
    lr_mult: 1
    decay_mult: 1
  }
  param {
    lr_mult: 2
    decay_mult: 0
  }
  convolution_param {
    num_output: 28
    kernel_size: 3
    stride: 1
    weight_filler {
      type: "xavier"
    }
    bias_filler {
      type: "constant"
    }
  }
}
layer {
  name: "prelu1"
  type: "PReLU"
  bottom: "conv1"
  top: "conv1"
}
layer {
  name: "pool1"
  type: "Pooling"
  bottom: "conv1"
  top: "pool1"
  pooling_param {
    pool: MAX
    kernel_size: 3
    stride: 2
  }
}
layer {
  name: "conv2"
  type: "Convolution"
  bottom: "pool1"
  top: "conv2"
  param {
    lr_mult: 1
    decay_mult: 1
  }
  param {
    lr_mult: 2
    decay_mult: 0
  }
  convolution_param {
    num_output: 48
    kernel_size: 3
    stride: 1
    weight_filler {
      type: "xavier"
    }
    bias_filler {
      type: "constant"
    }
  }
}
layer {
  name: "prelu2"
  type: "PReLU"
  bottom: "conv2"
  top: "conv2"
}
layer {
  name: "pool2"
  type: "Pooling"
  bottom: "conv2"
  top: "pool2"
  pooling_param {
    pool: MAX
    kernel_size: 3
    stride: 2
  }
}
layer {
  name: "conv3"
  type: "Convolution"
  bottom: "pool2"
  top: "conv3"
  param {
    lr_mult: 1
    decay_mult: 1
  }
  param {
    lr_mult: 2
    decay_mult: 0
  }
  convolution_param {
    num_output: 64
    kernel_size: 2
    stride: 1
    weight_filler {
      type: "xavier"
    }
    bias_filler {
      type: "constant"
    }
  }
}
layer {
  name: "prelu3"
  type: "PReLU"
  bottom: "conv3"
  top: "conv3"
}
layer {
  name: "fc"
  type: "InnerProduct"
  bottom: "conv3"
  top: "fc"
  param {
    lr_mult: 1
    decay_mult: 1
  }
  param {
    lr_mult: 2
    decay_mult: 0
  }
  inner_product_param {
    num_output: 128
    weight_filler {
      type: "xavier"
    }
    bias_filler {
      type: "constant"
    }
  }
}
layer {
  name: "prelu4"
  type: "PReLU"
  bottom: "fc"
  top: "fc"
}
layer {
  name: "score"
  type: "InnerProduct"
  bottom: "fc"
  top: "score"
  param {
    lr_mult: 1
    decay_mult: 1
  }
  param {
    lr_mult: 2
    decay_mult: 0
  }
  inner_product_param {
    num_output: 2
    weight_filler {
      type: "xavier"
    }
    bias_filler {
      type: "constant"
    }
  }
}
layer {
  name: "bbox_pred"
  type: "InnerProduct"
  bottom: "fc"
  top: "bbox_pred"
  param {
    lr_mult: 1
    decay_mult: 1
  }
  param {
    lr_mult: 2
    decay_mult: 0
  }
  inner_product_param {
    num_output: 4
    weight_filler {
      type: "xavier"
    }
    bias_filler {
      type: "constant"
    }
  }
}
layer {
  name: "landmark_pred"
  type: "InnerProduct"
  bottom: "fc"
  top: "landmark_pred"
  param {
    lr_mult: 1
    decay_mult: 1
  }
  param {
    lr_mult: 2
    decay_mult: 0
  }
  inner_product_param {
    num_output: 10
    weight_filler {
      type: "xavier"
    }
    bias_filler {
      type: "constant"
    }
  }
}
layer {
  name: "loss"
  type: "JfdaLoss"
  bottom: "score"
  bottom: "bbox_pred"
  bottom: "landmark_pred"
  bottom: "bbox_target"
  bottom: "landmark_target"
  bottom: "label"
  top: "face_cls_loss"
  top: "bbox_reg_loss"
  top: "landmark_reg_loss"
  top: "face_cls_neg_acc"
  top: "face_cls_pos_acc"
  loss_weight: 1
  loss_weight: 0.5
  loss_weight: 1
  loss_weight: 0
  loss_weight: 0
  jfda_loss_param {
    drop_loss_rate: 0.3
  }
}
I1130 22:09:34.956604 11845 layer_factory.hpp:77] Creating layer data
I1130 22:09:34.956867 11845 net.cpp:100] Creating Layer data
I1130 22:09:34.956881 11845 net.cpp:408] data -> data
I1130 22:09:34.956893 11845 net.cpp:408] data -> bbox_target
I1130 22:09:34.956899 11845 net.cpp:408] data -> landmark_target
I1130 22:09:34.956904 11845 net.cpp:408] data -> label
I1130 22:09:34.971107 11845 net.cpp:150] Setting up data
I1130 22:09:34.971124 11845 net.cpp:157] Top shape: 4 3 24 24 (6912)
I1130 22:09:34.971129 11845 net.cpp:157] Top shape: 4 4 (16)
I1130 22:09:34.971132 11845 net.cpp:157] Top shape: 4 10 (40)
I1130 22:09:34.971135 11845 net.cpp:157] Top shape: 4 (4)
I1130 22:09:34.971138 11845 net.cpp:165] Memory required for data: 27888
I1130 22:09:34.971143 11845 layer_factory.hpp:77] Creating layer conv1
I1130 22:09:34.971155 11845 net.cpp:100] Creating Layer conv1
I1130 22:09:34.971159 11845 net.cpp:434] conv1 <- data
I1130 22:09:34.971168 11845 net.cpp:408] conv1 -> conv1
I1130 22:09:35.178894 11845 net.cpp:150] Setting up conv1
I1130 22:09:35.178935 11845 net.cpp:157] Top shape: 4 28 22 22 (54208)
I1130 22:09:35.178939 11845 net.cpp:165] Memory required for data: 244720
I1130 22:09:35.178957 11845 layer_factory.hpp:77] Creating layer prelu1
I1130 22:09:35.178972 11845 net.cpp:100] Creating Layer prelu1
I1130 22:09:35.178977 11845 net.cpp:434] prelu1 <- conv1
I1130 22:09:35.178983 11845 net.cpp:395] prelu1 -> conv1 (in-place)
I1130 22:09:35.180052 11845 net.cpp:150] Setting up prelu1
I1130 22:09:35.180071 11845 net.cpp:157] Top shape: 4 28 22 22 (54208)
I1130 22:09:35.180076 11845 net.cpp:165] Memory required for data: 461552
I1130 22:09:35.180084 11845 layer_factory.hpp:77] Creating layer pool1
I1130 22:09:35.180095 11845 net.cpp:100] Creating Layer pool1
I1130 22:09:35.180099 11845 net.cpp:434] pool1 <- conv1
I1130 22:09:35.180106 11845 net.cpp:408] pool1 -> pool1
I1130 22:09:35.180151 11845 net.cpp:150] Setting up pool1
I1130 22:09:35.180157 11845 net.cpp:157] Top shape: 4 28 11 11 (13552)
I1130 22:09:35.180160 11845 net.cpp:165] Memory required for data: 515760
I1130 22:09:35.180162 11845 layer_factory.hpp:77] Creating layer conv2
I1130 22:09:35.180176 11845 net.cpp:100] Creating Layer conv2
I1130 22:09:35.180178 11845 net.cpp:434] conv2 <- pool1
I1130 22:09:35.180182 11845 net.cpp:408] conv2 -> conv2
I1130 22:09:35.181321 11845 net.cpp:150] Setting up conv2
I1130 22:09:35.181335 11845 net.cpp:157] Top shape: 4 48 9 9 (15552)
I1130 22:09:35.181339 11845 net.cpp:165] Memory required for data: 577968
I1130 22:09:35.181349 11845 layer_factory.hpp:77] Creating layer prelu2
I1130 22:09:35.181354 11845 net.cpp:100] Creating Layer prelu2
I1130 22:09:35.181357 11845 net.cpp:434] prelu2 <- conv2
I1130 22:09:35.181363 11845 net.cpp:395] prelu2 -> conv2 (in-place)
I1130 22:09:35.182385 11845 net.cpp:150] Setting up prelu2
I1130 22:09:35.182399 11845 net.cpp:157] Top shape: 4 48 9 9 (15552)
I1130 22:09:35.182402 11845 net.cpp:165] Memory required for data: 640176
I1130 22:09:35.182407 11845 layer_factory.hpp:77] Creating layer pool2
I1130 22:09:35.182415 11845 net.cpp:100] Creating Layer pool2
I1130 22:09:35.182417 11845 net.cpp:434] pool2 <- conv2
I1130 22:09:35.182423 11845 net.cpp:408] pool2 -> pool2
I1130 22:09:35.182454 11845 net.cpp:150] Setting up pool2
I1130 22:09:35.182459 11845 net.cpp:157] Top shape: 4 48 4 4 (3072)
I1130 22:09:35.182461 11845 net.cpp:165] Memory required for data: 652464
I1130 22:09:35.182464 11845 layer_factory.hpp:77] Creating layer conv3
I1130 22:09:35.182476 11845 net.cpp:100] Creating Layer conv3
I1130 22:09:35.182478 11845 net.cpp:434] conv3 <- pool2
I1130 22:09:35.182482 11845 net.cpp:408] conv3 -> conv3
I1130 22:09:35.183404 11845 net.cpp:150] Setting up conv3
I1130 22:09:35.183418 11845 net.cpp:157] Top shape: 4 64 3 3 (2304)
I1130 22:09:35.183423 11845 net.cpp:165] Memory required for data: 661680
I1130 22:09:35.183429 11845 layer_factory.hpp:77] Creating layer prelu3
I1130 22:09:35.183436 11845 net.cpp:100] Creating Layer prelu3
I1130 22:09:35.183439 11845 net.cpp:434] prelu3 <- conv3
I1130 22:09:35.183444 11845 net.cpp:395] prelu3 -> conv3 (in-place)
I1130 22:09:35.183519 11845 net.cpp:150] Setting up prelu3
I1130 22:09:35.183526 11845 net.cpp:157] Top shape: 4 64 3 3 (2304)
I1130 22:09:35.183527 11845 net.cpp:165] Memory required for data: 670896
I1130 22:09:35.183533 11845 layer_factory.hpp:77] Creating layer fc
I1130 22:09:35.183547 11845 net.cpp:100] Creating Layer fc
I1130 22:09:35.183550 11845 net.cpp:434] fc <- conv3
I1130 22:09:35.183557 11845 net.cpp:408] fc -> fc
I1130 22:09:35.184975 11845 net.cpp:150] Setting up fc
I1130 22:09:35.184989 11845 net.cpp:157] Top shape: 4 128 (512)
I1130 22:09:35.184993 11845 net.cpp:165] Memory required for data: 672944
I1130 22:09:35.184998 11845 layer_factory.hpp:77] Creating layer prelu4
I1130 22:09:35.185004 11845 net.cpp:100] Creating Layer prelu4
I1130 22:09:35.185008 11845 net.cpp:434] prelu4 <- fc
I1130 22:09:35.185011 11845 net.cpp:395] prelu4 -> fc (in-place)
I1130 22:09:35.185080 11845 net.cpp:150] Setting up prelu4
I1130 22:09:35.185087 11845 net.cpp:157] Top shape: 4 128 (512)
I1130 22:09:35.185091 11845 net.cpp:165] Memory required for data: 674992
I1130 22:09:35.185094 11845 layer_factory.hpp:77] Creating layer fc_prelu4_0_split
I1130 22:09:35.185101 11845 net.cpp:100] Creating Layer fc_prelu4_0_split
I1130 22:09:35.185103 11845 net.cpp:434] fc_prelu4_0_split <- fc
I1130 22:09:35.185107 11845 net.cpp:408] fc_prelu4_0_split -> fc_prelu4_0_split_0
I1130 22:09:35.185115 11845 net.cpp:408] fc_prelu4_0_split -> fc_prelu4_0_split_1
I1130 22:09:35.185120 11845 net.cpp:408] fc_prelu4_0_split -> fc_prelu4_0_split_2
I1130 22:09:35.185158 11845 net.cpp:150] Setting up fc_prelu4_0_split
I1130 22:09:35.185163 11845 net.cpp:157] Top shape: 4 128 (512)
I1130 22:09:35.185166 11845 net.cpp:157] Top shape: 4 128 (512)
I1130 22:09:35.185169 11845 net.cpp:157] Top shape: 4 128 (512)
I1130 22:09:35.185173 11845 net.cpp:165] Memory required for data: 681136
I1130 22:09:35.185179 11845 layer_factory.hpp:77] Creating layer score
I1130 22:09:35.185185 11845 net.cpp:100] Creating Layer score
I1130 22:09:35.185189 11845 net.cpp:434] score <- fc_prelu4_0_split_0
I1130 22:09:35.185194 11845 net.cpp:408] score -> score
I1130 22:09:35.185263 11845 net.cpp:150] Setting up score
I1130 22:09:35.185269 11845 net.cpp:157] Top shape: 4 2 (8)
I1130 22:09:35.185271 11845 net.cpp:165] Memory required for data: 681168
I1130 22:09:35.185276 11845 layer_factory.hpp:77] Creating layer bbox_pred
I1130 22:09:35.185286 11845 net.cpp:100] Creating Layer bbox_pred
I1130 22:09:35.185289 11845 net.cpp:434] bbox_pred <- fc_prelu4_0_split_1
I1130 22:09:35.185295 11845 net.cpp:408] bbox_pred -> bbox_pred
I1130 22:09:35.185370 11845 net.cpp:150] Setting up bbox_pred
I1130 22:09:35.185375 11845 net.cpp:157] Top shape: 4 4 (16)
I1130 22:09:35.185379 11845 net.cpp:165] Memory required for data: 681232
I1130 22:09:35.185382 11845 layer_factory.hpp:77] Creating layer landmark_pred
I1130 22:09:35.185387 11845 net.cpp:100] Creating Layer landmark_pred
I1130 22:09:35.185390 11845 net.cpp:434] landmark_pred <- fc_prelu4_0_split_2
I1130 22:09:35.185396 11845 net.cpp:408] landmark_pred -> landmark_pred
I1130 22:09:35.185479 11845 net.cpp:150] Setting up landmark_pred
I1130 22:09:35.185485 11845 net.cpp:157] Top shape: 4 10 (40)
I1130 22:09:35.185487 11845 net.cpp:165] Memory required for data: 681392
I1130 22:09:35.185497 11845 layer_factory.hpp:77] Creating layer loss
I1130 22:09:35.185508 11845 net.cpp:100] Creating Layer loss
I1130 22:09:35.185511 11845 net.cpp:434] loss <- score
I1130 22:09:35.185514 11845 net.cpp:434] loss <- bbox_pred
I1130 22:09:35.185518 11845 net.cpp:434] loss <- landmark_pred
I1130 22:09:35.185520 11845 net.cpp:434] loss <- bbox_target
…
[2016-11-30 22:59:49,131][INFO] remove data/onet_positive_train
[2016-11-30 22:59:49,131][INFO] remove data/onet_negative_train
[2016-11-30 22:59:49,131][INFO] remove data/onet_part_train
[2016-11-30 22:59:49,132][INFO] fill queues
WARNING: Logging before InitGoogleLogging() is written to STDERR
I1130 22:59:51.360960 12480 net.cpp:58] Initializing net from parameters: 
name: "pNet"
state {
  phase: TEST
  level: 0
}
layer {
  name: "data"
  type: "Input"
  top: "data"
  input_param {
    shape {
      dim: 1
      dim: 3
      dim: 12
      dim: 12
    }
  }
}
layer {
  name: "conv1"
  type: "Convolution"
  bottom: "data"
  top: "conv1"
  convolution_param {
    num_output: 10
    kernel_size: 3
    stride: 1
  }
}
layer {
  name: "prelu1"
  type: "PReLU"
  bottom: "conv1"
  top: "conv1"
}
layer {
  name: "pool1"
  type: "Pooling"
  bottom: "conv1"
  top: "pool1"
  pooling_param {
    pool: MAX
    kernel_size: 2
    stride: 2
  }
}
layer {
  name: "conv2"
  type: "Convolution"
  bottom: "pool1"
  top: "conv2"
  convolution_param {
    num_output: 16
    kernel_size: 3
    stride: 1
  }
}
layer {
  name: "prelu2"
  type: "PReLU"
  bottom: "conv2"
  top: "conv2"
}
layer {
  name: "conv3"
  type: "Convolution"
  bottom: "conv2"
  top: "conv3"
  convolution_param {
    num_output: 32
    kernel_size: 3
    stride: 1
  }
}
layer {
  name: "prelu3"
  type: "PReLU"
  bottom: "conv3"
  top: "conv3"
}
layer {
  name: "score"
  type: "Convolution"
  bottom: "conv3"
  top: "score"
  convolution_param {
    num_output: 2
    kernel_size: 1
    stride: 1
  }
}
layer {
  name: "prob"
  type: "Softmax"
  bottom: "score"
  top: "prob"
  softmax_param {
    axis: 1
  }
}
layer {
  name: "bbox_pred"
  type: "Convolution"
  bottom: "conv3"
  top: "bbox_pred"
  convolution_param {
    num_output: 4
    kernel_size: 1
    stride: 1
  }
}
layer {
  name: "landmark_pred"
  type: "Convolution"
  bottom: "conv3"
  top: "landmark_pred"
  convolution_param {
    num_output: 10
    kernel_size: 1
    stride: 1
  }
}
I1130 22:59:51.361117 12480 layer_factory.hpp:77] Creating layer data
I1130 22:59:51.361140 12480 net.cpp:100] Creating Layer data
I1130 22:59:51.361147 12480 net.cpp:408] data -> data
I1130 22:59:51.380074 12480 net.cpp:150] Setting up data
I1130 22:59:51.380120 12480 net.cpp:157] Top shape: 1 3 12 12 (432)
I1130 22:59:51.380125 12480 net.cpp:165] Memory required for data: 1728
I1130 22:59:51.380132 12480 layer_factory.hpp:77] Creating layer conv1
I1130 22:59:51.380151 12480 net.cpp:100] Creating Layer conv1
I1130 22:59:51.380156 12480 net.cpp:434] conv1 <- data
I1130 22:59:51.380162 12480 net.cpp:408] conv1 -> conv1
WARNING: Logging before InitGoogleLogging() is written to STDERR
I1130 22:59:51.401788 12481 net.cpp:58] Initializing net from parameters: 
name: "pNet"
state {
  phase: TEST
  level: 0
}
layer {
  name: "data"
  type: "Input"
  top: "data"
  input_param {
    shape {
      dim: 1
      dim: 3
      dim: 12
      dim: 12
    }
  }
}
layer {
  name: "conv1"
  type: "Convolution"
  bottom: "data"
  top: "conv1"
  convolution_param {
    num_output: 10
    kernel_size: 3
    stride: 1
  }
}
layer {
  name: "prelu1"
  type: "PReLU"
  bottom: "conv1"
  top: "conv1"
}
layer {
  name: "pool1"
  type: "Pooling"
  bottom: "conv1"
  top: "pool1"
  pooling_param {
    pool: MAX
    kernel_size: 2
    stride: 2
  }
}
layer {
  name: "conv2"
  type: "Convolution"
  bottom: "pool1"
  top: "conv2"
  convolution_param {
    num_output: 16
    kernel_size: 3
    stride: 1
  }
}
layer {
  name: "prelu2"
  type: "PReLU"
  bottom: "conv2"
  top: "conv2"
}
layer {
  name: "conv3"
  type: "Convolution"
  bottom: "conv2"
  top: "conv3"
  convolution_param {
    num_output: 32
    kernel_size: 3
    stride: 1
  }
}
layer {
  name: "prelu3"
  type: "PReLU"
  bottom: "conv3"
  top: "conv3"
}
layer {
  name: "score"
  type: "Convolution"
  bottom: "conv3"
  top: "score"
  convolution_param {
    num_output: 2
    kernel_size: 1
    stride: 1
  }
}
layer {
  name: "prob"
  type: "Softmax"
  bottom: "score"
  top: "prob"
  softmax_param {
    axis: 1
  }
}
layer {
  name: "bbox_pred"
  type: "Convolution"
  bottom: "conv3"
  top: "bbox_pred"
  convolution_param {
    num_output: 4
    kernel_size: 1
    stride: 1
  }
}
layer {
  name: "landmark_pred"
  type: "Convolution"
  bottom: "conv3"
  top: "landmark_pred"
  convolution_param {
    num_output: 10
    kernel_size: 1
    stride: 1
  }
}
I1130 22:59:51.401952 12481 layer_factory.hpp:77] Creating layer data
I1130 22:59:51.401981 12481 net.cpp:100] Creating Layer data
I1130 22:59:51.401990 12481 net.cpp:408] data -> data
I1130 22:59:51.420774 12481 net.cpp:150] Setting up data
I1130 22:59:51.420832 12481 net.cpp:157] Top shape: 1 3 12 12 (432)
I1130 22:59:51.420837 12481 net.cpp:165] Memory required for data: 1728
I1130 22:59:51.420847 12481 layer_factory.hpp:77] Creating layer conv1
I1130 22:59:51.420868 12481 net.cpp:100] Creating Layer conv1
I1130 22:59:51.420874 12481 net.cpp:434] conv1 <- data
I1130 22:59:51.420882 12481 net.cpp:408] conv1 -> conv1
I1130 22:59:51.663473 12480 net.cpp:150] Setting up conv1
I1130 22:59:51.663532 12480 net.cpp:157] Top shape: 1 10 10 10 (1000)
I1130 22:59:51.663538 12480 net.cpp:165] Memory required for data: 5728
I1130 22:59:51.663570 12480 layer_factory.hpp:77] Creating layer prelu1
I1130 22:59:51.663595 12480 net.cpp:100] Creating Layer prelu1
I1130 22:59:51.663601 12480 net.cpp:434] prelu1 <- conv1
I1130 22:59:51.663607 12480 net.cpp:395] prelu1 -> conv1 (in-place)
I1130 22:59:51.663722 12480 net.cpp:150] Setting up prelu1
I1130 22:59:51.663733 12480 net.cpp:157] Top shape: 1 10 10 10 (1000)
I1130 22:59:51.663738 12480 net.cpp:165] Memory required for data: 9728
I1130 22:59:51.663746 12480 layer_factory.hpp:77] Creating layer pool1
I1130 22:59:51.663758 12480 net.cpp:100] Creating Layer pool1
I1130 22:59:51.663763 12480 net.cpp:434] pool1 <- conv1
I1130 22:59:51.663769 12480 net.cpp:408] pool1 -> pool1
I1130 22:59:51.663810 12480 net.cpp:150] Setting up pool1
I1130 22:59:51.663817 12480 net.cpp:157] Top shape: 1 10 5 5 (250)
I1130 22:59:51.663821 12480 net.cpp:165] Memory required for data: 10728
I1130 22:59:51.663825 12480 layer_factory.hpp:77] Creating layer conv2
I1130 22:59:51.663837 12480 net.cpp:100] Creating Layer conv2
I1130 22:59:51.663841 12480 net.cpp:434] conv2 <- pool1
I1130 22:59:51.663846 12480 net.cpp:408] conv2 -> conv2
I1130 22:59:51.666460 12480 net.cpp:150] Setting up conv2
I1130 22:59:51.666482 12480 net.cpp:157] Top shape: 1 16 3 3 (144)
I1130 22:59:51.666487 12480 net.cpp:165] Memory required for data: 11304
I1130 22:59:51.666499 12480 layer_factory.hpp:77] Creating layer prelu2
I1130 22:59:51.666509 12480 net.cpp:100] Creating Layer prelu2
I1130 22:59:51.666513 12480 net.cpp:434] prelu2 <- conv2
I1130 22:59:51.666520 12480 net.cpp:395] prelu2 -> conv2 (in-place)
I1130 22:59:51.666616 12480 net.cpp:150] Setting up prelu2
I1130 22:59:51.666625 12480 net.cpp:157] Top shape: 1 16 3 3 (144)
I1130 22:59:51.666628 12480 net.cpp:165] Memory required for data: 11880
I1130 22:59:51.666635 12480 layer_factory.hpp:77] Creating layer conv3
I1130 22:59:51.666645 12480 net.cpp:100] Creating Layer conv3
I1130 22:59:51.666649 12480 net.cpp:434] conv3 <- conv2
I1130 22:59:51.666656 12480 net.cpp:408] conv3 -> conv3
I1130 22:59:51.669235 12480 net.cpp:150] Setting up conv3
I1130 22:59:51.669256 12480 net.cpp:157] Top shape: 1 32 1 1 (32)
I1130 22:59:51.669261 12480 net.cpp:165] Memory required for data: 12008
I1130 22:59:51.669270 12480 layer_factory.hpp:77] Creating layer prelu3
I1130 22:59:51.669281 12480 net.cpp:100] Creating Layer prelu3
I1130 22:59:51.669296 12480 net.cpp:434] prelu3 <- conv3
I1130 22:59:51.669302 12480 net.cpp:395] prelu3 -> conv3 (in-place)
I1130 22:59:51.669400 12480 net.cpp:150] Setting up prelu3
I1130 22:59:51.669409 12480 net.cpp:157] Top shape: 1 32 1 1 (32)
I1130 22:59:51.669411 12480 net.cpp:165] Memory required for data: 12136
I1130 22:59:51.669420 12480 layer_factory.hpp:77] Creating layer conv3_prelu3_0_split
I1130 22:59:51.669435 12480 net.cpp:100] Creating Layer conv3_prelu3_0_split
I1130 22:59:51.669440 12480 net.cpp:434] conv3_prelu3_0_split <- conv3
I1130 22:59:51.669445 12480 net.cpp:408] conv3_prelu3_0_split -> conv3_prelu3_0_split_0
I1130 22:59:51.669451 12480 net.cpp:408] conv3_prelu3_0_split -> conv3_prelu3_0_split_1
I1130 22:59:51.669457 12480 net.cpp:408] conv3_prelu3_0_split -> conv3_prelu3_0_split_2
I1130 22:59:51.669509 12480 net.cpp:150] Setting up conv3_prelu3_0_split
I1130 22:59:51.669517 12480 net.cpp:157] Top shape: 1 32 1 1 (32)
I1130 22:59:51.669522 12480 net.cpp:157] Top shape: 1 32 1 1 (32)
I1130 22:59:51.669525 12480 net.cpp:157] Top shape: 1 32 1 1 (32)
I1130 22:59:51.669528 12480 net.cpp:165] Memory required for data: 12520
I1130 22:59:51.669533 12480 layer_factory.hpp:77] Creating layer score
I1130 22:59:51.669541 12480 net.cpp:100] Creating Layer score
I1130 22:59:51.669545 12480 net.cpp:434] score <- conv3_prelu3_0_split_0
I1130 22:59:51.669551 12480 net.cpp:408] score -> score
I1130 22:59:51.670626 12480 net.cpp:150] Setting up score
I1130 22:59:51.670645 12480 net.cpp:157] Top shape: 1 2 1 1 (2)
I1130 22:59:51.670650 12480 net.cpp:165] Memory required for data: 12528
I1130 22:59:51.670657 12480 layer_factory.hpp:77] Creating layer prob
I1130 22:59:51.670670 12480 net.cpp:100] Creating Layer prob
I1130 22:59:51.670675 12480 net.cpp:434] prob <- score
I1130 22:59:51.670680 12480 net.cpp:408] prob -> prob
I1130 22:59:51.670939 12480 net.cpp:150] Setting up prob
I1130 22:59:51.670950 12480 net.cpp:157] Top shape: 1 2 1 1 (2)
I1130 22:59:51.670954 12480 net.cpp:165] Memory required for data: 12536
I1130 22:59:51.670958 12480 layer_factory.hpp:77] Creating layer bbox_pred
I1130 22:59:51.670969 12480 net.cpp:100] Creating Layer bbox_pred
I1130 22:59:51.670974 12480 net.cpp:434] bbox_pred <- conv3_prelu3_0_split_1
I1130 22:59:51.670979 12480 net.cpp:408] bbox_pred -> bbox_pred
I1130 22:59:51.672080 12480 net.cpp:150] Setting up bbox_pred
I1130 22:59:51.672099 12480 net.cpp:157] Top shape: 1 4 1 1 (4)
I1130 22:59:51.672106 12480 net.cpp:165] Memory required for data: 12552
I1130 22:59:51.672116 12480 layer_factory.hpp:77] Creating layer landmark_pred
I1130 22:59:51.672124 12480 net.cpp:100] Creating Layer landmark_pred
I1130 22:59:51.672128 12480 net.cpp:434] landmark_pred <- conv3_prelu3_0_split_2
I1130 22:59:51.672137 12480 net.cpp:408] landmark_pred -> landmark_pred
I1130 22:59:51.673241 12480 net.cpp:150] Setting up landmark_pred
I1130 22:59:51.673260 12480 net.cpp:157] Top shape: 1 10 1 1 (10)
I1130 22:59:51.673264 12480 net.cpp:165] Memory required for data: 12592
I1130 22:59:51.673272 12480 net.cpp:228] landmark_pred does not need backward computation.
I1130 22:59:51.673277 12480 net.cpp:228] bbox_pred does not need backward computation.
I1130 22:59:51.673281 12480 net.cpp:228] prob does not need backward computation.
I1130 22:59:51.673285 12480 net.cpp:228] score does not need backward computation.
…
I1130 22:59:51.673334 12480 net.cpp:270] This network produces output landmark_pred
I1130 22:59:51.673338 12480 net.cpp:270] This network produces output prob
I1130 22:59:51.673354 12480 net.cpp:283] Network initialization done.
I1130 22:59:51.673642 12480 net.cpp:761] Ignoring source layer loss
I1130 22:59:51.692687 12480 net.cpp:58] Initializing net from parameters: 
name: "rNet"
state {
  phase: TEST
  level: 0
}
layer {
  name: "data"
  type: "Input"
  top: "data"
  input_param {
    shape {
      dim: 1
      dim: 3
      dim: 24
      dim: 24
    }
  }
}
layer {
  name: "conv1"
  type: "Convolution"
  bottom: "data"
  top: "conv1"
  convolution_param {
    num_output: 28
    kernel_size: 3
    stride: 1
  }
}
layer {
  name: "prelu1"
  type: "PReLU"
  bottom: "conv1"
  top: "conv1"
}
layer {
  name: "pool1"
  type: "Pooling"
  bottom: "conv1"
  top: "pool1"
  pooling_param {
    pool: MAX
    kernel_size: 3
    stride: 2
  }
}
layer {
  name: "conv2"
  type: "Convolution"
  bottom: "pool1"
  top: "conv2"
  convolution_param {
    num_output: 48
    kernel_size: 3
    stride: 1
  }
}
layer {
  name: "prelu2"
  type: "PReLU"
  bottom: "conv2"
  top: "conv2"
}
layer {
  name: "pool2"
  type: "Pooling"
  bottom: "conv2"
  top: "pool2"
  pooling_param {
    pool: MAX
    kernel_size: 3
    stride: 2
  }
}
layer {
  name: "conv3"
  type: "Convolution"
  bottom: "pool2"
  top: "conv3"
  convolution_param {
    num_output: 64
    kernel_size: 2
    stride: 1
  }
}
layer {
  name: "prelu3"
  type: "PReLU"
  bottom: "conv3"
  top: "conv3"
}
layer {
  name: "fc"
  type: "InnerProduct"
  bottom: "conv3"
  top: "fc"
  inner_product_param {
    num_output: 128
  }
}
layer {
  name: "prelu4"
  type: "PReLU"
  bottom: "fc"
  top: "fc"
}
layer {
  name: "score"
  type: "InnerProduct"
  bottom: "fc"
  top: "score"
  inner_product_param {
    num_output: 2
  }
}
layer {
  name: "prob"
  type: "Softmax"
  bottom: "score"
  top: "prob"
}
layer {
  name: "bbox_pred"
  type: "InnerProduct"
  bottom: "fc"
  top: "bbox_pred"
  inner_product_param {
    num_output: 4
  }
}
layer {
  name: "landmark_pred"
  type: "InnerProduct"
  bottom: "fc"
  top: "landmark_pred"
  inner_product_param {
    num_output: 10
  }
}
I1130 22:59:51.692777 12480 layer_factory.hpp:77] Creating layer data
I1130 22:59:51.692790 12480 net.cpp:100] Creating Layer data
I1130 22:59:51.692796 12480 net.cpp:408] data -> data
I1130 22:59:51.692867 12480 net.cpp:150] Setting up data
I1130 22:59:51.692876 12480 net.cpp:157] Top shape: 1 3 24 24 (1728)
I1130 22:59:51.692879 12480 net.cpp:165] Memory required for data: 6912
I1130 22:59:51.692884 12480 layer_factory.hpp:77] Creating layer conv1
I1130 22:59:51.692893 12480 net.cpp:100] Creating Layer conv1
I1130 22:59:51.692898 12480 net.cpp:434] conv1 <- data
I1130 22:59:51.692903 12480 net.cpp:408] conv1 -> conv1
I1130 22:59:51.694147 12480 net.cpp:150] Setting up conv1
I1130 22:59:51.694169 12480 net.cpp:157] Top shape: 1 28 22 22 (13552)
I1130 22:59:51.694174 12480 net.cpp:165] Memory required for data: 61120
I1130 22:59:51.694185 12480 layer_factory.hpp:77] Creating layer prelu1
I1130 22:59:51.694197 12480 net.cpp:100] Creating Layer prelu1
I1130 22:59:51.694202 12480 net.cpp:434] prelu1 <- conv1
I1130 22:59:51.694207 12480 net.cpp:395] prelu1 -> conv1 (in-place)
I1130 22:59:51.694344 12480 net.cpp:150] Setting up prelu1
I1130 22:59:51.694352 12480 net.cpp:157] Top shape: 1 28 22 22 (13552)
I1130 22:59:51.694356 12480 net.cpp:165] Memory required for data: 115328
I1130 22:59:51.694365 12480 layer_factory.hpp:77] Creating layer pool1
I1130 22:59:51.694373 12480 net.cpp:100] Creating Layer pool1
I1130 22:59:51.694376 12480 net.cpp:434] pool1 <- conv1
I1130 22:59:51.694385 12480 net.cpp:408] pool1 -> pool1
I1130 22:59:51.694425 12480 net.cpp:150] Setting up pool1
I1130 22:59:51.694434 12480 net.cpp:157] Top shape: 1 28 11 11 (3388)
I1130 22:59:51.694438 12480 net.cpp:165] Memory required for data: 128880
I1130 22:59:51.694449 12480 layer_factory.hpp:77] Creating layer conv2
I1130 22:59:51.694458 12480 net.cpp:100] Creating Layer conv2
I1130 22:59:51.694461 12480 net.cpp:434] conv2 <- pool1
I1130 22:59:51.694469 12480 net.cpp:408] conv2 -> conv2
I1130 22:59:51.695600 12480 net.cpp:150] Setting up conv2
I1130 22:59:51.695618 12480 net.cpp:157] Top shape: 1 48 9 9 (3888)
I1130 22:59:51.695623 12480 net.cpp:165] Memory required for data: 144432
I1130 22:59:51.695633 12480 layer_factory.hpp:77] Creating layer prelu2
I1130 22:59:51.695643 12480 net.cpp:100] Creating Layer prelu2
I1130 22:59:51.695648 12480 net.cpp:434] prelu2 <- conv2
I1130 22:59:51.695653 12480 net.cpp:395] prelu2 -> conv2 (in-place)
I1130 22:59:51.695775 12480 net.cpp:150] Setting up prelu2
I1130 22:59:51.695783 12480 net.cpp:157] Top shape: 1 48 9 9 (3888)
I1130 22:59:51.695786 12480 net.cpp:165] Memory required for data: 159984
I1130 22:59:51.695791 12480 layer_factory.hpp:77] Creating layer pool2
I1130 22:59:51.695801 12480 net.cpp:100] Creating Layer pool2
I1130 22:59:51.695806 12480 net.cpp:434] pool2 <- conv2
I1130 22:59:51.695811 12480 net.cpp:408] pool2 -> pool2
I1130 22:59:51.695852 12480 net.cpp:150] Setting up pool2
I1130 22:59:51.695859 12480 net.cpp:157] Top shape: 1 48 4 4 (768)
I1130 22:59:51.695863 12480 net.cpp:165] Memory required for data: 163056
I1130 22:59:51.695866 12480 layer_factory.hpp:77] Creating layer conv3
I1130 22:59:51.695875 12480 net.cpp:100] Creating Layer conv3
I1130 22:59:51.695878 12480 net.cpp:434] conv3 <- pool2
I1130 22:59:51.695883 12480 net.cpp:408] conv3 -> conv3
I1130 22:59:51.696735 12480 net.cpp:150] Setting up conv3
I1130 22:59:51.696753 12480 net.cpp:157] Top shape: 1 64 3 3 (576)
I1130 22:59:51.696756 12480 net.cpp:165] Memory required for data: 165360
I1130 22:59:51.696764 12480 layer_factory.hpp:77] Creating layer prelu3
I1130 22:59:51.696774 12480 net.cpp:100] Creating Layer prelu3
I1130 22:59:51.696779 12480 net.cpp:434] prelu3 <- conv3
I1130 22:59:51.696784 12480 net.cpp:395] prelu3 -> conv3 (in-place)
I1130 22:59:51.696892 12480 net.cpp:150] Setting up prelu3
I1130 22:59:51.696899 12480 net.cpp:157] Top shape: 1 64 3 3 (576)
I1130 22:59:51.696902 12480 net.cpp:165] Memory required for data: 167664
I1130 22:59:51.696910 12480 layer_factory.hpp:77] Creating layer fc
I1130 22:59:51.696919 12480 net.cpp:100] Creating Layer fc
I1130 22:59:51.696923 12480 net.cpp:434] fc <- conv3
I1130 22:59:51.696938 12480 net.cpp:408] fc -> fc
I1130 22:59:51.698719 12480 net.cpp:150] Setting up fc
I1130 22:59:51.698737 12480 net.cpp:157] Top shape: 1 128 (128)
I1130 22:59:51.698741 12480 net.cpp:165] Memory required for data: 168176
I1130 22:59:51.698750 12480 layer_factory.hpp:77] Creating layer prelu4
I1130 22:59:51.698760 12480 net.cpp:100] Creating Layer prelu4
I1130 22:59:51.698763 12480 net.cpp:434] prelu4 <- fc
I1130 22:59:51.698768 12480 net.cpp:395] prelu4 -> fc (in-place)
I1130 22:59:51.698848 12480 net.cpp:150] Setting up prelu4
I1130 22:59:51.698854 12480 net.cpp:157] Top shape: 1 128 (128)
I1130 22:59:51.698858 12480 net.cpp:165] Memory required for data: 168688
I1130 22:59:51.698863 12480 layer_factory.hpp:77] Creating layer fc_prelu4_0_split
I1130 22:59:51.698868 12480 net.cpp:100] Creating Layer fc_prelu4_0_split
I1130 22:59:51.698873 12480 net.cpp:434] fc_prelu4_0_split <- fc
I1130 22:59:51.698878 12480 net.cpp:408] fc_prelu4_0_split -> fc_prelu4_0_split_0
I1130 22:59:51.698889 12480 net.cpp:408] fc_prelu4_0_split -> fc_prelu4_0_split_1
I1130 22:59:51.698895 12480 net.cpp:408] fc_prelu4_0_split -> fc_prelu4_0_split_2
I1130 22:59:51.698941 12480 net.cpp:150] Setting up fc_prelu4_0_split
I1130 22:59:51.698947 12480 net.cpp:157] Top shape: 1 128 (128)
I1130 22:59:51.698956 12480 net.cpp:157] Top shape: 1 128 (128)
I1130 22:59:51.698959 12480 net.cpp:157] Top shape: 1 128 (128)
I1130 22:59:51.698963 12480 net.cpp:165] Memory required for data: 170224
I1130 22:59:51.698966 12480 layer_factory.hpp:77] Creating layer score
I1130 22:59:51.698972 12480 net.cpp:100] Creating Layer score
I1130 22:59:51.698993 12480 net.cpp:434] score <- fc_prelu4_0_split_0
I1130 22:59:51.699000 12480 net.cpp:408] score -> score
I1130 22:59:51.699100 12480 net.cpp:150] Setting up score
I1130 22:59:51.699110 12480 net.cpp:157] Top shape: 1 2 (2)
I1130 22:59:51.699113 12480 net.cpp:165] Memory required for data: 170232
I1130 22:59:51.699120 12480 layer_factory.hpp:77] Creating layer prob
I1130 22:59:51.699127 12480 net.cpp:100] Creating Layer prob
I1130 22:59:51.699131 12480 net.cpp:434] prob <- score
I1130 22:59:51.699138 12480 net.cpp:408] prob -> prob
I1130 22:59:51.699646 12480 net.cpp:150] Setting up prob
I1130 22:59:51.699661 12480 net.cpp:157] Top shape: 1 2 (2)
I1130 22:59:51.699666 12480 net.cpp:165] Memory required for data: 170240
I1130 22:59:51.699669 12480 layer_factory.hpp:77] Creating layer bbox_pred
I1130 22:59:51.699676 12480 net.cpp:100] Creating Layer bbox_pred
I1130 22:59:51.699681 12480 net.cpp:434] bbox_pred <- fc_prelu4_0_split_1
I1130 22:59:51.699689 12480 net.cpp:408] bbox_pred -> bbox_pred
I1130 22:59:51.699803 12480 net.cpp:150] Setting up bbox_pred
I1130 22:59:51.699811 12480 net.cpp:157] Top shape: 1 4 (4)
I1130 22:59:51.699815 12480 net.cpp:165] Memory required for data: 170256
I1130 22:59:51.699821 12480 layer_factory.hpp:77] Creating layer landmark_pred
I1130 22:59:51.699827 12480 net.cpp:100] Creating Layer landmark_pred
I1130 22:59:51.699831 12480 net.cpp:434] landmark_pred <- fc_prelu4_0_split_2
I1130 22:59:51.699836 12480 net.cpp:408] landmark_pred -> landmark_pred
I1130 22:59:51.699944 12480 net.cpp:150] Setting up landmark_pred
I1130 22:59:51.699951 12480 net.cpp:157] Top shape: 1 10 (10)
I1130 22:59:51.699955 12480 net.cpp:165] Memory required for data: 170296
I1130 22:59:51.699967 12480 net.cpp:228] landmark_pred does not need backward computation.
I1130 22:59:51.699972 12480 net.cpp:228] bbox_pred does not need backward computation.
I1130 22:59:51.699975 12480 net.cpp:228] prob does not need backward computation.
I1130 22:59:51.699980 12480 net.cpp:228] score does not need backward computation.
…
[2016-11-30 23:14:38,455][INFO] remove data/onet_positive_val
[2016-11-30 23:14:38,459][INFO] remove data/onet_negative_val
[2016-11-30 23:14:38,475][INFO] remove data/onet_part_val
[2016-11-30 23:14:38,482][INFO] fill queues
WARNING: Logging before InitGoogleLogging() is written to STDERR
I1130 23:14:40.718045 12653 net.cpp:58] Initializing net from parameters: 
name: "pNet"
state {
  phase: TEST
  level: 0
}
layer {
  name: "data"
  type: "Input"
  top: "data"
  input_param {
    shape {
      dim: 1
      dim: 3
      dim: 12
      dim: 12
    }
  }
}
layer {
  name: "conv1"
  type: "Convolution"
  bottom: "data"
  top: "conv1"
  convolution_param {
    num_output: 10
    kernel_size: 3
    stride: 1
  }
}
layer {
  name: "prelu1"
  type: "PReLU"
  bottom: "conv1"
  top: "conv1"
}
layer {
  name: "pool1"
  type: "Pooling"
  bottom: "conv1"
  top: "pool1"
  pooling_param {
    pool: MAX
    kernel_size: 2
    stride: 2
  }
}
layer {
  name: "conv2"
  type: "Convolution"
  bottom: "pool1"
  top: "conv2"
  convolution_param {
    num_output: 16
    kernel_size: 3
    stride: 1
  }
}
layer {
  name: "prelu2"
  type: "PReLU"
  bottom: "conv2"
  top: "conv2"
}
layer {
  name: "conv3"
  type: "Convolution"
  bottom: "conv2"
  top: "conv3"
  convolution_param {
    num_output: 32
    kernel_size: 3
    stride: 1
  }
}
layer {
  name: "prelu3"
  type: "PReLU"
  bottom: "conv3"
  top: "conv3"
}
layer {
  name: "score"
  type: "Convolution"
  bottom: "conv3"
  top: "score"
  convolution_param {
    num_output: 2
    kernel_size: 1
    stride: 1
  }
}
layer {
  name: "prob"
  type: "Softmax"
  bottom: "score"
  top: "prob"
  softmax_param {
    axis: 1
  }
}
layer {
  name: "bbox_pred"
  type: "Convolution"
  bottom: "conv3"
  top: "bbox_pred"
  convolution_param {
    num_output: 4
    kernel_size: 1
    stride: 1
  }
}
layer {
  name: "landmark_pred"
  type: "Convolution"
  bottom: "conv3"
  top: "landmark_pred"
  convolution_param {
    num_output: 10
    kernel_size: 1
    stride: 1
  }
}
I1130 23:14:40.718192 12653 layer_factory.hpp:77] Creating layer data
I1130 23:14:40.718211 12653 net.cpp:100] Creating Layer data
I1130 23:14:40.718220 12653 net.cpp:408] data -> data
WARNING: Logging before InitGoogleLogging() is written to STDERR
I1130 23:14:40.724521 12652 net.cpp:58] Initializing net from parameters: 
name: "pNet"
state {
  phase: TEST
  level: 0
}
layer {
  name: "data"
  type: "Input"
  top: "data"
  input_param {
    shape {
      dim: 1
      dim: 3
      dim: 12
      dim: 12
    }
  }
}
layer {
  name: "conv1"
  type: "Convolution"
  bottom: "data"
  top: "conv1"
  convolution_param {
    num_output: 10
    kernel_size: 3
    stride: 1
  }
}
layer {
  name: "prelu1"
  type: "PReLU"
  bottom: "conv1"
  top: "conv1"
}
layer {
  name: "pool1"
  type: "Pooling"
  bottom: "conv1"
  top: "pool1"
  pooling_param {
    pool: MAX
    kernel_size: 2
    stride: 2
  }
}
layer {
  name: "conv2"
  type: "Convolution"
  bottom: "pool1"
  top: "conv2"
  convolution_param {
    num_output: 16
    kernel_size: 3
    stride: 1
  }
}
layer {
  name: "prelu2"
  type: "PReLU"
  bottom: "conv2"
  top: "conv2"
}
layer {
  name: "conv3"
  type: "Convolution"
  bottom: "conv2"
  top: "conv3"
  convolution_param {
    num_output: 32
    kernel_size: 3
    stride: 1
  }
}
layer {
  name: "prelu3"
  type: "PReLU"
  bottom: "conv3"
  top: "conv3"
}
layer {
  name: "score"
  type: "Convolution"
  bottom: "conv3"
  top: "score"
  convolution_param {
    num_output: 2
    kernel_size: 1
    stride: 1
  }
}
layer {
  name: "prob"
  type: "Softmax"
  bottom: "score"
  top: "prob"
  softmax_param {
    axis: 1
  }
}
layer {
  name: "bbox_pred"
  type: "Convolution"
  bottom: "conv3"
  top: "bbox_pred"
  convolution_param {
    num_output: 4
    kernel_size: 1
    stride: 1
  }
}
layer {
  name: "landmark_pred"
  type: "Convolution"
  bottom: "conv3"
  top: "landmark_pred"
  convolution_param {
    num_output: 10
    kernel_size: 1
    stride: 1
  }
}
I1130 23:14:40.724671 12652 layer_factory.hpp:77] Creating layer data
I1130 23:14:40.724690 12652 net.cpp:100] Creating Layer data
I1130 23:14:40.724699 12652 net.cpp:408] data -> data
I1130 23:14:40.746606 12653 net.cpp:150] Setting up data
I1130 23:14:40.746635 12653 net.cpp:157] Top shape: 1 3 12 12 (432)
I1130 23:14:40.746640 12653 net.cpp:165] Memory required for data: 1728
I1130 23:14:40.746646 12653 layer_factory.hpp:77] Creating layer conv1
I1130 23:14:40.746659 12653 net.cpp:100] Creating Layer conv1
I1130 23:14:40.746665 12653 net.cpp:434] conv1 <- data
I1130 23:14:40.746670 12653 net.cpp:408] conv1 -> conv1
I1130 23:14:40.752709 12652 net.cpp:150] Setting up data
I1130 23:14:40.752745 12652 net.cpp:157] Top shape: 1 3 12 12 (432)
I1130 23:14:40.752750 12652 net.cpp:165] Memory required for data: 1728
I1130 23:14:40.752758 12652 layer_factory.hpp:77] Creating layer conv1
I1130 23:14:40.752773 12652 net.cpp:100] Creating Layer conv1
I1130 23:14:40.752777 12652 net.cpp:434] conv1 <- data
I1130 23:14:40.752784 12652 net.cpp:408] conv1 -> conv1
I1130 23:14:41.021055 12653 net.cpp:150] Setting up conv1
I1130 23:14:41.021114 12653 net.cpp:157] Top shape: 1 10 10 10 (1000)
I1130 23:14:41.021121 12653 net.cpp:165] Memory required for data: 5728
I1130 23:14:41.021152 12653 layer_factory.hpp:77] Creating layer prelu1
I1130 23:14:41.021173 12653 net.cpp:100] Creating Layer prelu1
I1130 23:14:41.021178 12653 net.cpp:434] prelu1 <- conv1
I1130 23:14:41.021186 12653 net.cpp:395] prelu1 -> conv1 (in-place)
I1130 23:14:41.021298 12653 net.cpp:150] Setting up prelu1
I1130 23:14:41.021309 12653 net.cpp:157] Top shape: 1 10 10 10 (1000)
I1130 23:14:41.021314 12653 net.cpp:165] Memory required for data: 9728
I1130 23:14:41.021322 12653 layer_factory.hpp:77] Creating layer pool1
I1130 23:14:41.021333 12653 net.cpp:100] Creating Layer pool1
I1130 23:14:41.021338 12653 net.cpp:434] pool1 <- conv1
I1130 23:14:41.021343 12653 net.cpp:408] pool1 -> pool1
I1130 23:14:41.021384 12653 net.cpp:150] Setting up pool1
I1130 23:14:41.021391 12653 net.cpp:157] Top shape: 1 10 5 5 (250)
I1130 23:14:41.021395 12653 net.cpp:165] Memory required for data: 10728
I1130 23:14:41.021399 12653 layer_factory.hpp:77] Creating layer conv2
I1130 23:14:41.021410 12653 net.cpp:100] Creating Layer conv2
I1130 23:14:41.021414 12653 net.cpp:434] conv2 <- pool1
I1130 23:14:41.021420 12653 net.cpp:408] conv2 -> conv2
I1130 23:14:41.023762 12653 net.cpp:150] Setting up conv2
I1130 23:14:41.023782 12653 net.cpp:157] Top shape: 1 16 3 3 (144)
I1130 23:14:41.023787 12653 net.cpp:165] Memory required for data: 11304
I1130 23:14:41.023798 12653 layer_factory.hpp:77] Creating layer prelu2
I1130 23:14:41.023808 12653 net.cpp:100] Creating Layer prelu2
I1130 23:14:41.023813 12653 net.cpp:434] prelu2 <- conv2
I1130 23:14:41.023819 12653 net.cpp:395] prelu2 -> conv2 (in-place)
I1130 23:14:41.023913 12653 net.cpp:150] Setting up prelu2
I1130 23:14:41.023921 12653 net.cpp:157] Top shape: 1 16 3 3 (144)
I1130 23:14:41.023926 12653 net.cpp:165] Memory required for data: 11880
I1130 23:14:41.023931 12653 layer_factory.hpp:77] Creating layer conv3
I1130 23:14:41.023941 12653 net.cpp:100] Creating Layer conv3
I1130 23:14:41.023944 12653 net.cpp:434] conv3 <- conv2
I1130 23:14:41.023952 12653 net.cpp:408] conv3 -> conv3
I1130 23:14:41.025413 12652 net.cpp:150] Setting up conv1
I1130 23:14:41.025457 12652 net.cpp:157] Top shape: 1 10 10 10 (1000)
I1130 23:14:41.025463 12652 net.cpp:165] Memory required for data: 5728
I1130 23:14:41.025490 12652 layer_factory.hpp:77] Creating layer prelu1
I1130 23:14:41.025508 12652 net.cpp:100] Creating Layer prelu1
I1130 23:14:41.025524 12652 net.cpp:434] prelu1 <- conv1
I1130 23:14:41.025532 12652 net.cpp:395] prelu1 -> conv1 (in-place)
I1130 23:14:41.025640 12652 net.cpp:150] Setting up prelu1
I1130 23:14:41.025652 12652 net.cpp:157] Top shape: 1 10 10 10 (1000)
I1130 23:14:41.025656 12652 net.cpp:165] Memory required for data: 9728
I1130 23:14:41.025665 12652 layer_factory.hpp:77] Creating layer pool1
I1130 23:14:41.025676 12652 net.cpp:100] Creating Layer pool1
I1130 23:14:41.025679 12652 net.cpp:434] pool1 <- conv1
I1130 23:14:41.025684 12652 net.cpp:408] pool1 -> pool1
I1130 23:14:41.025725 12652 net.cpp:150] Setting up pool1
I1130 23:14:41.025732 12652 net.cpp:157] Top shape: 1 10 5 5 (250)
I1130 23:14:41.025735 12652 net.cpp:165] Memory required for data: 10728
I1130 23:14:41.025739 12652 layer_factory.hpp:77] Creating layer conv2
I1130 23:14:41.025750 12652 net.cpp:100] Creating Layer conv2
I1130 23:14:41.025753 12652 net.cpp:434] conv2 <- pool1
I1130 23:14:41.025758 12652 net.cpp:408] conv2 -> conv2
I1130 23:14:41.026268 12653 net.cpp:150] Setting up conv3
I1130 23:14:41.026288 12653 net.cpp:157] Top shape: 1 32 1 1 (32)
I1130 23:14:41.026293 12653 net.cpp:165] Memory required for data: 12008
I1130 23:14:41.026302 12653 layer_factory.hpp:77] Creating layer prelu3
I1130 23:14:41.026309 12653 net.cpp:100] Creating Layer prelu3
I1130 23:14:41.026314 12653 net.cpp:434] prelu3 <- conv3
I1130 23:14:41.026322 12653 net.cpp:395] prelu3 -> conv3 (in-place)
I1130 23:14:41.026420 12653 net.cpp:150] Setting up prelu3
I1130 23:14:41.026428 12653 net.cpp:157] Top shape: 1 32 1 1 (32)
I1130 23:14:41.026432 12653 net.cpp:165] Memory required for data: 12136
I1130 23:14:41.026440 12653 layer_factory.hpp:77] Creating layer conv3_prelu3_0_split
I1130 23:14:41.026454 12653 net.cpp:100] Creating Layer conv3_prelu3_0_split
I1130 23:14:41.026458 12653 net.cpp:434] conv3_prelu3_0_split <- conv3
I1130 23:14:41.026464 12653 net.cpp:408] conv3_prelu3_0_split -> conv3_prelu3_0_split_0
I1130 23:14:41.026471 12653 net.cpp:408] conv3_prelu3_0_split -> conv3_prelu3_0_split_1
I1130 23:14:41.026478 12653 net.cpp:408] conv3_prelu3_0_split -> conv3_prelu3_0_split_2
I1130 23:14:41.026530 12653 net.cpp:150] Setting up conv3_prelu3_0_split
I1130 23:14:41.026538 12653 net.cpp:157] Top shape: 1 32 1 1 (32)
I1130 23:14:41.026542 12653 net.cpp:157] Top shape: 1 32 1 1 (32)
I1130 23:14:41.026546 12653 net.cpp:157] Top shape: 1 32 1 1 (32)
I1130 23:14:41.026551 12653 net.cpp:165] Memory required for data: 12520
I1130 23:14:41.026554 12653 layer_factory.hpp:77] Creating layer score
I1130 23:14:41.026563 12653 net.cpp:100] Creating Layer score
I1130 23:14:41.026567 12653 net.cpp:434] score <- conv3_prelu3_0_split_0
I1130 23:14:41.026573 12653 net.cpp:408] score -> score
I1130 23:14:41.027637 12653 net.cpp:150] Setting up score
I1130 23:14:41.027657 12653 net.cpp:157] Top shape: 1 2 1 1 (2)
I1130 23:14:41.027660 12653 net.cpp:165] Memory required for data: 12528
I1130 23:14:41.027668 12653 layer_factory.hpp:77] Creating layer prob
I1130 23:14:41.027680 12653 net.cpp:100] Creating Layer prob
I1130 23:14:41.027685 12653 net.cpp:434] prob <- score
I1130 23:14:41.027691 12653 net.cpp:408] prob -> prob
I1130 23:14:41.027940 12653 net.cpp:150] Setting up prob
I1130 23:14:41.027951 12653 net.cpp:157] Top shape: 1 2 1 1 (2)
I1130 23:14:41.027956 12653 net.cpp:165] Memory required for data: 12536
I1130 23:14:41.027959 12653 layer_factory.hpp:77] Creating layer bbox_pred
I1130 23:14:41.027969 12653 net.cpp:100] Creating Layer bbox_pred
I1130 23:14:41.027974 12653 net.cpp:434] bbox_pred <- conv3_prelu3_0_split_1
I1130 23:14:41.027981 12653 net.cpp:408] bbox_pred -> bbox_pred
I1130 23:14:41.028060 12652 net.cpp:150] Setting up conv2
I1130 23:14:41.028087 12652 net.cpp:157] Top shape: 1 16 3 3 (144)
I1130 23:14:41.028093 12652 net.cpp:165] Memory required for data: 11304
I1130 23:14:41.028105 12652 layer_factory.hpp:77] Creating layer prelu2
I1130 23:14:41.028113 12652 net.cpp:100] Creating Layer prelu2
I1130 23:14:41.028118 12652 net.cpp:434] prelu2 <- conv2
I1130 23:14:41.028125 12652 net.cpp:395] prelu2 -> conv2 (in-place)
I1130 23:14:41.028228 12652 net.cpp:150] Setting up prelu2
I1130 23:14:41.028237 12652 net.cpp:157] Top shape: 1 16 3 3 (144)
I1130 23:14:41.028240 12652 net.cpp:165] Memory required for data: 11880
I1130 23:14:41.028246 12652 layer_factory.hpp:77] Creating layer conv3
I1130 23:14:41.028256 12652 net.cpp:100] Creating Layer conv3
I1130 23:14:41.028260 12652 net.cpp:434] conv3 <- conv2
I1130 23:14:41.028267 12652 net.cpp:408] conv3 -> conv3
I1130 23:14:41.029062 12653 net.cpp:150] Setting up bbox_pred
I1130 23:14:41.029088 12653 net.cpp:157] Top shape: 1 4 1 1 (4)
I1130 23:14:41.029093 12653 net.cpp:165] Memory required for data: 12552
I1130 23:14:41.029103 12653 layer_factory.hpp:77] Creating layer landmark_pred
I1130 23:14:41.029114 12653 net.cpp:100] Creating Layer landmark_pred
I1130 23:14:41.029119 12653 net.cpp:434] landmark_pred <- conv3_prelu3_0_split_2
I1130 23:14:41.029126 12653 net.cpp:408] landmark_pred -> landmark_pred
I1130 23:14:41.030218 12653 net.cpp:150] Setting up landmark_pred
I1130 23:14:41.030237 12653 net.cpp:157] Top shape: 1 10 1 1 (10)
I1130 23:14:41.030242 12653 net.cpp:165] Memory required for data: 12592
I1130 23:14:41.030251 12653 net.cpp:228] landmark_pred does not need backward computation.
I1130 23:14:41.030256 12653 net.cpp:228] bbox_pred does not need backward computation.
I1130 23:14:41.030259 12653 net.cpp:228] prob does not need backward computation.
I1130 23:14:41.030263 12653 net.cpp:228] score does not need backward computation.
…
I1130 23:14:41.030289 12653 net.cpp:228] prelu1 does not need backward computation.
I1130 23:14:41.030292 12653 net.cpp:228] conv1 does not need backward computation.
I1130 23:14:41.030297 12653 net.cpp:228] data does not need backward computation.
I1130 23:14:41.030299 12653 net.cpp:270] This network produces output bbox_pred
I1130 23:14:41.030304 12653 net.cpp:270] This network produces output landmark_pred
I1130 23:14:41.030308 12653 net.cpp:270] This network produces output prob
I1130 23:14:41.030325 12653 net.cpp:283] Network initialization done.
I1130 23:14:41.030495 12652 net.cpp:150] Setting up conv3
I1130 23:14:41.030513 12652 net.cpp:157] Top shape: 1 32 1 1 (32)
I1130 23:14:41.030516 12652 net.cpp:165] Memory required for data: 12008
I1130 23:14:41.030525 12652 layer_factory.hpp:77] Creating layer prelu3
I1130 23:14:41.030532 12652 net.cpp:100] Creating Layer prelu3
I1130 23:14:41.030536 12652 net.cpp:434] prelu3 <- conv3
I1130 23:14:41.030544 12652 net.cpp:395] prelu3 -> conv3 (in-place)
I1130 23:14:41.030583 12653 net.cpp:761] Ignoring source layer loss
I1130 23:14:41.030640 12652 net.cpp:150] Setting up prelu3
I1130 23:14:41.030649 12652 net.cpp:157] Top shape: 1 32 1 1 (32)
I1130 23:14:41.030652 12652 net.cpp:165] Memory required for data: 12136
I1130 23:14:41.030661 12652 layer_factory.hpp:77] Creating layer conv3_prelu3_0_split
I1130 23:14:41.030673 12652 net.cpp:100] Creating Layer conv3_prelu3_0_split
I1130 23:14:41.030678 12652 net.cpp:434] conv3_prelu3_0_split <- conv3
I1130 23:14:41.030683 12652 net.cpp:408] conv3_prelu3_0_split -> conv3_prelu3_0_split_0
I1130 23:14:41.030690 12652 net.cpp:408] conv3_prelu3_0_split -> conv3_prelu3_0_split_1
I1130 23:14:41.030696 12652 net.cpp:408] conv3_prelu3_0_split -> conv3_prelu3_0_split_2
I1130 23:14:41.030752 12652 net.cpp:150] Setting up conv3_prelu3_0_split
I1130 23:14:41.030760 12652 net.cpp:157] Top shape: 1 32 1 1 (32)
I1130 23:14:41.030764 12652 net.cpp:157] Top shape: 1 32 1 1 (32)
I1130 23:14:41.030768 12652 net.cpp:157] Top shape: 1 32 1 1 (32)
I1130 23:14:41.030776 12652 net.cpp:165] Memory required for data: 12520
I1130 23:14:41.030781 12652 layer_factory.hpp:77] Creating layer score
I1130 23:14:41.030791 12652 net.cpp:100] Creating Layer score
I1130 23:14:41.030796 12652 net.cpp:434] score <- conv3_prelu3_0_split_0
I1130 23:14:41.030802 12652 net.cpp:408] score -> score
I1130 23:14:41.030992 12653 net.cpp:58] Initializing net from parameters: 
name: "rNet"
state {
  phase: TEST
  level: 0
}
layer {
  name: "data"
  type: "Input"
  top: "data"
  input_param {
    shape {
      dim: 1
      dim: 3
      dim: 24
      dim: 24
    }
  }
}
layer {
  name: "conv1"
  type: "Convolution"
  bottom: "data"
  top: "conv1"
  convolution_param {
    num_output: 28
    kernel_size: 3
    stride: 1
  }
}
layer {
  name: "prelu1"
  type: "PReLU"
  bottom: "conv1"
  top: "conv1"
}
layer {
  name: "pool1"
  type: "Pooling"
  bottom: "conv1"
  top: "pool1"
  pooling_param {
    pool: MAX
    kernel_size: 3
    stride: 2
  }
}
layer {
  name: "conv2"
  type: "Convolution"
  bottom: "pool1"
  top: "conv2"
  convolution_param {
    num_output: 48
    kernel_size: 3
    stride: 1
  }
}
layer {
  name: "prelu2"
  type: "PReLU"
  bottom: "conv2"
  top: "conv2"
}
layer {
  name: "pool2"
  type: "Pooling"
  bottom: "conv2"
  top: "pool2"
  pooling_param {
    pool: MAX
    kernel_size: 3
    stride: 2
  }
}
layer {
  name: "conv3"
  type: "Convolution"
  bottom: "pool2"
  top: "conv3"
  convolution_param {
    num_output: 64
    kernel_size: 2
    stride: 1
  }
}
layer {
  name: "prelu3"
  type: "PReLU"
  bottom: "conv3"
  top: "conv3"
}
layer {
  name: "fc"
  type: "InnerProduct"
  bottom: "conv3"
  top: "fc"
  inner_product_param {
    num_output: 128
  }
}
layer {
  name: "prelu4"
  type: "PReLU"
  bottom: "fc"
  top: "fc"
}
layer {
  name: "score"
  type: "InnerProduct"
  bottom: "fc"
  top: "score"
  inner_product_param {
    num_output: 2
  }
}
layer {
  name: "prob"
  type: "Softmax"
  bottom: "score"
  top: "prob"
}
layer {
  name: "bbox_pred"
  type: "InnerProduct"
  bottom: "fc"
  top: "bbox_pred"
  inner_product_param {
    num_output: 4
  }
}
layer {
  name: "landmark_pred"
  type: "InnerProduct"
  bottom: "fc"
  top: "landmark_pred"
  inner_product_param {
    num_output: 10
  }
}
I1130 23:14:41.031060 12653 layer_factory.hpp:77] Creating layer data
I1130 23:14:41.031078 12653 net.cpp:100] Creating Layer data
I1130 23:14:41.031087 12653 net.cpp:408] data -> data
I1130 23:14:41.031126 12653 net.cpp:150] Setting up data
I1130 23:14:41.031133 12653 net.cpp:157] Top shape: 1 3 24 24 (1728)
I1130 23:14:41.031137 12653 net.cpp:165] Memory required for data: 6912
I1130 23:14:41.031141 12653 layer_factory.hpp:77] Creating layer conv1
I1130 23:14:41.031149 12653 net.cpp:100] Creating Layer conv1
I1130 23:14:41.031153 12653 net.cpp:434] conv1 <- data
I1130 23:14:41.031159 12653 net.cpp:408] conv1 -> conv1
I1130 23:14:41.031848 12652 net.cpp:150] Setting up score
I1130 23:14:41.031863 12652 net.cpp:157] Top shape: 1 2 1 1 (2)
I1130 23:14:41.031867 12652 net.cpp:165] Memory required for data: 12528
I1130 23:14:41.031877 12652 layer_factory.hpp:77] Creating layer prob
I1130 23:14:41.031888 12652 net.cpp:100] Creating Layer prob
I1130 23:14:41.031893 12652 net.cpp:434] prob <- score
I1130 23:14:41.031898 12652 net.cpp:408] prob -> prob
I1130 23:14:41.032155 12652 net.cpp:150] Setting up prob
I1130 23:14:41.032171 12652 net.cpp:157] Top shape: 1 2 1 1 (2)
I1130 23:14:41.032174 12652 net.cpp:165] Memory required for data: 12536
I1130 23:14:41.032178 12652 layer_factory.hpp:77] Creating layer bbox_pred
I1130 23:14:41.032189 12652 net.cpp:100] Creating Layer bbox_pred
I1130 23:14:41.032193 12652 net.cpp:434] bbox_pred <- conv3_prelu3_0_split_1
I1130 23:14:41.032199 12652 net.cpp:408] bbox_pred -> bbox_pred
I1130 23:14:41.032243 12653 net.cpp:150] Setting up conv1
I1130 23:14:41.032259 12653 net.cpp:157] Top shape: 1 28 22 22 (13552)
I1130 23:14:41.032264 12653 net.cpp:165] Memory required for data: 61120
I1130 23:14:41.032279 12653 layer_factory.hpp:77] Creating layer prelu1
I1130 23:14:41.032294 12653 net.cpp:100] Creating Layer prelu1
I1130 23:14:41.032299 12653 net.cpp:434] prelu1 <- conv1
I1130 23:14:41.032308 12653 net.cpp:395] prelu1 -> conv1 (in-place)
I1130 23:14:41.032413 12653 net.cpp:150] Setting up prelu1
I1130 23:14:41.032423 12653 net.cpp:157] Top shape: 1 28 22 22 (13552)
I1130 23:14:41.032426 12653 net.cpp:165] Memory required for data: 115328
I1130 23:14:41.032435 12653 layer_factory.hpp:77] Creating layer pool1
I1130 23:14:41.032443 12653 net.cpp:100] Creating Layer pool1
I1130 23:14:41.032446 12653 net.cpp:434] pool1 <- conv1
I1130 23:14:41.032454 12653 net.cpp:408] pool1 -> pool1
I1130 23:14:41.032492 12653 net.cpp:150] Setting up pool1
I1130 23:14:41.032500 12653 net.cpp:157] Top shape: 1 28 11 11 (3388)
I1130 23:14:41.032503 12653 net.cpp:165] Memory required for data: 128880
I1130 23:14:41.032506 12653 layer_factory.hpp:77] Creating layer conv2
I1130 23:14:41.032521 12653 net.cpp:100] Creating Layer conv2
I1130 23:14:41.032524 12653 net.cpp:434] conv2 <- pool1
I1130 23:14:41.032531 12653 net.cpp:408] conv2 -> conv2
I1130 23:14:41.033259 12652 net.cpp:150] Setting up bbox_pred
I1130 23:14:41.033278 12652 net.cpp:157] Top shape: 1 4 1 1 (4)
I1130 23:14:41.033283 12652 net.cpp:165] Memory required for data: 12552
I1130 23:14:41.033291 12652 layer_factory.hpp:77] Creating layer landmark_pred
I1130 23:14:41.033303 12652 net.cpp:100] Creating Layer landmark_pred
I1130 23:14:41.033308 12652 net.cpp:434] landmark_pred <- conv3_prelu3_0_split_2
I1130 23:14:41.033316 12652 net.cpp:408] landmark_pred -> landmark_pred
I1130 23:14:41.033628 12653 net.cpp:150] Setting up conv2
I1130 23:14:41.033644 12653 net.cpp:157] Top shape: 1 48 9 9 (3888)
I1130 23:14:41.033648 12653 net.cpp:165] Memory required for data: 144432
I1130 23:14:41.033659 12653 layer_factory.hpp:77] Creating layer prelu2
I1130 23:14:41.033670 12653 net.cpp:100] Creating Layer prelu2
I1130 23:14:41.033675 12653 net.cpp:434] prelu2 <- conv2
I1130 23:14:41.033680 12653 net.cpp:395] prelu2 -> conv2 (in-place)
I1130 23:14:41.033787 12653 net.cpp:150] Setting up prelu2
I1130 23:14:41.033794 12653 net.cpp:157] Top shape: 1 48 9 9 (3888)
I1130 23:14:41.033798 12653 net.cpp:165] Memory required for data: 159984
I1130 23:14:41.033803 12653 layer_factory.hpp:77] Creating layer pool2
I1130 23:14:41.033813 12653 net.cpp:100] Creating Layer pool2
I1130 23:14:41.033818 12653 net.cpp:434] pool2 <- conv2
I1130 23:14:41.033823 12653 net.cpp:408] pool2 -> pool2
I1130 23:14:41.033862 12653 net.cpp:150] Setting up pool2
I1130 23:14:41.033870 12653 net.cpp:157] Top shape: 1 48 4 4 (768)
I1130 23:14:41.033874 12653 net.cpp:165] Memory required for data: 163056
I1130 23:14:41.033877 12653 layer_factory.hpp:77] Creating layer conv3
I1130 23:14:41.033886 12653 net.cpp:100] Creating Layer conv3
I1130 23:14:41.033890 12653 net.cpp:434] conv3 <- pool2
I1130 23:14:41.033895 12653 net.cpp:408] conv3 -> conv3
I1130 23:14:41.034387 12652 net.cpp:150] Setting up landmark_pred
I1130 23:14:41.034406 12652 net.cpp:157] Top shape: 1 10 1 1 (10)
I1130 23:14:41.034410 12652 net.cpp:165] Memory required for data: 12592
I1130 23:14:41.034418 12652 net.cpp:228] landmark_pred does not need backward computation.
I1130 23:14:41.034423 12652 net.cpp:228] bbox_pred does not need backward computation.
I1130 23:14:41.034427 12652 net.cpp:228] prob does not need backward computation.
I1130 23:14:41.034431 12652 net.cpp:228] score does not need backward computation.
…
I1130 23:14:41.034457 12652 net.cpp:228] prelu1 does not need backward computation.
I1130 23:14:41.034461 12652 net.cpp:228] conv1 does not need backward computation.
I1130 23:14:41.034471 12652 net.cpp:228] data does not need backward computation.
I1130 23:14:41.034476 12652 net.cpp:270] This network produces output bbox_pred
I1130 23:14:41.034479 12652 net.cpp:270] This network produces output landmark_pred
I1130 23:14:41.034483 12652 net.cpp:270] This network produces output prob
I1130 23:14:41.034498 12652 net.cpp:283] Network initialization done.
I1130 23:14:41.034698 12653 net.cpp:150] Setting up conv3
I1130 23:14:41.034713 12653 net.cpp:157] Top shape: 1 64 3 3 (576)
I1130 23:14:41.034716 12653 net.cpp:165] Memory required for data: 165360
I1130 23:14:41.034724 12653 layer_factory.hpp:77] Creating layer prelu3
I1130 23:14:41.034734 12653 net.cpp:100] Creating Layer prelu3
I1130 23:14:41.034739 12653 net.cpp:434] prelu3 <- conv3
I1130 23:14:41.034735 12652 net.cpp:761] Ignoring source layer loss
I1130 23:14:41.034745 12653 net.cpp:395] prelu3 -> conv3 (in-place)
I1130 23:14:41.034847 12653 net.cpp:150] Setting up prelu3
I1130 23:14:41.034855 12653 net.cpp:157] Top shape: 1 64 3 3 (576)
I1130 23:14:41.034859 12653 net.cpp:165] Memory required for data: 167664
I1130 23:14:41.034868 12653 layer_factory.hpp:77] Creating layer fc
I1130 23:14:41.034875 12653 net.cpp:100] Creating Layer fc
I1130 23:14:41.034879 12653 net.cpp:434] fc <- conv3
I1130 23:14:41.034884 12653 net.cpp:408] fc -> fc
I1130 23:14:41.035131 12652 net.cpp:58] Initializing net from parameters: 
name: "rNet"
state {
  phase: TEST
  level: 0
}
layer {
  name: "data"
  type: "Input"
  top: "data"
  input_param {
    shape {
      dim: 1
      dim: 3
      dim: 24
      dim: 24
    }
  }
}
layer {
  name: "conv1"
  type: "Convolution"
  bottom: "data"
  top: "conv1"
  convolution_param {
    num_output: 28
    kernel_size: 3
    stride: 1
  }
}
layer {
  name: "prelu1"
  type: "PReLU"
  bottom: "conv1"
  top: "conv1"
}
layer {
  name: "pool1"
  type: "Pooling"
  bottom: "conv1"
  top: "pool1"
  pooling_param {
    pool: MAX
    kernel_size: 3
    stride: 2
  }
}
layer {
  name: "conv2"
  type: "Convolution"
  bottom: "pool1"
  top: "conv2"
  convolution_param {
    num_output: 48
    kernel_size: 3
    stride: 1
  }
}
layer {
  name: "prelu2"
  type: "PReLU"
  bottom: "conv2"
  top: "conv2"
}
layer {
  name: "pool2"
  type: "Pooling"
  bottom: "conv2"
  top: "pool2"
  pooling_param {
    pool: MAX
    kernel_size: 3
    stride: 2
  }
}
layer {
  name: "conv3"
  type: "Convolution"
  bottom: "pool2"
  top: "conv3"
  convolution_param {
    num_output: 64
    kernel_size: 2
    stride: 1
  }
}
layer {
  name: "prelu3"
  type: "PReLU"
  bottom: "conv3"
  top: "conv3"
}
layer {
  name: "fc"
  type: "InnerProduct"
  bottom: "conv3"
  top: "fc"
  inner_product_param {
    num_output: 128
  }
}
layer {
  name: "prelu4"
  type: "PReLU"
  bottom: "fc"
  top: "fc"
}
layer {
  name: "score"
  type: "InnerProduct"
  bottom: "fc"
  top: "score"
  inner_product_param {
    num_output: 2
  }
}
layer {
  name: "prob"
  type: "Softmax"
  bottom: "score"
  top: "prob"
}
layer {
  name: "bbox_pred"
  type: "InnerProduct"
  bottom: "fc"
  top: "bbox_pred"
  inner_product_param {
    num_output: 4
  }
}
layer {
  name: "landmark_pred"
  type: "InnerProduct"
  bottom: "fc"
  top: "landmark_pred"
  inner_product_param {
    num_output: 10
  }
}
I1130 23:14:41.035202 12652 layer_factory.hpp:77] Creating layer data
I1130 23:14:41.035213 12652 net.cpp:100] Creating Layer data
I1130 23:14:41.035218 12652 net.cpp:408] data -> data
I1130 23:14:41.035254 12652 net.cpp:150] Setting up data
I1130 23:14:41.035262 12652 net.cpp:157] Top shape: 1 3 24 24 (1728)
I1130 23:14:41.035266 12652 net.cpp:165] Memory required for data: 6912
I1130 23:14:41.035270 12652 layer_factory.hpp:77] Creating layer conv1
I1130 23:14:41.035279 12652 net.cpp:100] Creating Layer conv1
I1130 23:14:41.035281 12652 net.cpp:434] conv1 <- data
I1130 23:14:41.035287 12652 net.cpp:408] conv1 -> conv1
I1130 23:14:41.036386 12653 net.cpp:150] Setting up fc
I1130 23:14:41.036406 12653 net.cpp:157] Top shape: 1 128 (128)
I1130 23:14:41.036414 12653 net.cpp:165] Memory required for data: 168176
I1130 23:14:41.036423 12653 layer_factory.hpp:77] Creating layer prelu4
I1130 23:14:41.036429 12653 net.cpp:100] Creating Layer prelu4
I1130 23:14:41.036434 12653 net.cpp:434] prelu4 <- fc
I1130 23:14:41.036442 12653 net.cpp:395] prelu4 -> fc (in-place)
I1130 23:14:41.036468 12652 net.cpp:150] Setting up conv1
I1130 23:14:41.036485 12652 net.cpp:157] Top shape: 1 28 22 22 (13552)
I1130 23:14:41.036489 12652 net.cpp:165] Memory required for data: 61120
I1130 23:14:41.036504 12652 layer_factory.hpp:77] Creating layer prelu1
I1130 23:14:41.036511 12652 net.cpp:100] Creating Layer prelu1
I1130 23:14:41.036515 12652 net.cpp:434] prelu1 <- conv1
I1130 23:14:41.036523 12652 net.cpp:395] prelu1 -> conv1 (in-place)
I1130 23:14:41.036522 12653 net.cpp:150] Setting up prelu4
I1130 23:14:41.036531 12653 net.cpp:157] Top shape: 1 128 (128)
I1130 23:14:41.036535 12653 net.cpp:165] Memory required for data: 168688
I1130 23:14:41.036540 12653 layer_factory.hpp:77] Creating layer fc_prelu4_0_split
I1130 23:14:41.036545 12653 net.cpp:100] Creating Layer fc_prelu4_0_split
I1130 23:14:41.036548 12653 net.cpp:434] fc_prelu4_0_split <- fc
I1130 23:14:41.036555 12653 net.cpp:408] fc_prelu4_0_split -> fc_prelu4_0_split_0
I1130 23:14:41.036561 12653 net.cpp:408] fc_prelu4_0_split -> fc_prelu4_0_split_1
I1130 23:14:41.036571 12653 net.cpp:408] fc_prelu4_0_split -> fc_prelu4_0_split_2
I1130 23:14:41.036615 12653 net.cpp:150] Setting up fc_prelu4_0_split
I1130 23:14:41.036622 12653 net.cpp:157] Top shape: 1 128 (128)
I1130 23:14:41.036628 12653 net.cpp:157] Top shape: 1 128 (128)
I1130 23:14:41.036630 12652 net.cpp:150] Setting up prelu1
I1130 23:14:41.036633 12653 net.cpp:157] Top shape: 1 128 (128)
I1130 23:14:41.036639 12653 net.cpp:165] Memory required for data: 170224
I1130 23:14:41.036640 12652 net.cpp:157] Top shape: 1 28 22 22 (13552)
I1130 23:14:41.036643 12653 layer_factory.hpp:77] Creating layer score
I1130 23:14:41.036644 12652 net.cpp:165] Memory required for data: 115328
I1130 23:14:41.036650 12653 net.cpp:100] Creating Layer score
I1130 23:14:41.036655 12653 net.cpp:434] score <- fc_prelu4_0_split_0
I1130 23:14:41.036655 12652 layer_factory.hpp:77] Creating layer pool1
I1130 23:14:41.036660 12653 net.cpp:408] score -> score
I1130 23:14:41.036664 12652 net.cpp:100] Creating Layer pool1
I1130 23:14:41.036669 12652 net.cpp:434] pool1 <- conv1
I1130 23:14:41.036675 12652 net.cpp:408] pool1 -> pool1
I1130 23:14:41.036713 12652 net.cpp:150] Setting up pool1
I1130 23:14:41.036721 12652 net.cpp:157] Top shape: 1 28 11 11 (3388)
I1130 23:14:41.036725 12652 net.cpp:165] Memory required for data: 128880
I1130 23:14:41.036728 12652 layer_factory.hpp:77] Creating layer conv2
I1130 23:14:41.036737 12652 net.cpp:100] Creating Layer conv2
I1130 23:14:41.036741 12652 net.cpp:434] conv2 <- pool1
I1130 23:14:41.036748 12652 net.cpp:408] conv2 -> conv2
I1130 23:14:41.036751 12653 net.cpp:150] Setting up score
I1130 23:14:41.036757 12653 net.cpp:157] Top shape: 1 2 (2)
I1130 23:14:41.036761 12653 net.cpp:165] Memory required for data: 170232
I1130 23:14:41.036767 12653 layer_factory.hpp:77] Creating layer prob
I1130 23:14:41.036773 12653 net.cpp:100] Creating Layer prob
I1130 23:14:41.036777 12653 net.cpp:434] prob <- score
I1130 23:14:41.036783 12653 net.cpp:408] prob -> prob
I1130 23:14:41.037294 12653 net.cpp:150] Setting up prob
I1130 23:14:41.037313 12653 net.cpp:157] Top shape: 1 2 (2)
I1130 23:14:41.037317 12653 net.cpp:165] Memory required for data: 170240
I1130 23:14:41.037322 12653 layer_factory.hpp:77] Creating layer bbox_pred
I1130 23:14:41.037330 12653 net.cpp:100] Creating Layer bbox_pred
I1130 23:14:41.037335 12653 net.cpp:434] bbox_pred <- fc_prelu4_0_split_1
I1130 23:14:41.037343 12653 net.cpp:408] bbox_pred -> bbox_pred
I1130 23:14:41.037459 12653 net.cpp:150] Setting up bbox_pred
I1130 23:14:41.037467 12653 net.cpp:157] Top shape: 1 4 (4)
I1130 23:14:41.037472 12653 net.cpp:165] Memory required for data: 170256
I1130 23:14:41.037478 12653 layer_factory.hpp:77] Creating layer landmark_pred
I1130 23:14:41.037489 12653 net.cpp:100] Creating Layer landmark_pred
I1130 23:14:41.037493 12653 net.cpp:434] landmark_pred <- fc_prelu4_0_split_2
I1130 23:14:41.037499 12653 net.cpp:408] landmark_pred -> landmark_pred
I1130 23:14:41.037605 12653 net.cpp:150] Setting up landmark_pred
I1130 23:14:41.037611 12653 net.cpp:157] Top shape: 1 10 (10)
I1130 23:14:41.037614 12653 net.cpp:165] Memory required for data: 170296
I1130 23:14:41.037626 12653 net.cpp:228] landmark_pred does not need backward computation.
I1130 23:14:41.037631 12653 net.cpp:228] bbox_pred does not need backward computation.
I1130 23:14:41.037634 12653 net.cpp:228] prob does not need backward computation.
I1130 23:14:41.037637 12653 net.cpp:228] score does not need backward computation.
…
I1130 23:14:41.037673 12653 net.cpp:228] prelu1 does not need backward computation.
I1130 23:14:41.037677 12653 net.cpp:228] conv1 does not need backward computation.
I1130 23:14:41.037680 12653 net.cpp:228] data does not need backward computation.
I1130 23:14:41.037683 12653 net.cpp:270] This network produces output bbox_pred
I1130 23:14:41.037688 12653 net.cpp:270] This network produces output landmark_pred
I1130 23:14:41.037691 12653 net.cpp:270] This network produces output prob
I1130 23:14:41.037703 12653 net.cpp:283] Network initialization done.
I1130 23:14:41.037822 12652 net.cpp:150] Setting up conv2
I1130 23:14:41.037837 12652 net.cpp:157] Top shape: 1 48 9 9 (3888)
I1130 23:14:41.037842 12652 net.cpp:165] Memory required for data: 144432
I1130 23:14:41.037853 12652 layer_factory.hpp:77] Creating layer prelu2
I1130 23:14:41.037864 12652 net.cpp:100] Creating Layer prelu2
I1130 23:14:41.037869 12652 net.cpp:434] prelu2 <- conv2
I1130 23:14:41.037875 12652 net.cpp:395] prelu2 -> conv2 (in-place)
I1130 23:14:41.037982 12652 net.cpp:150] Setting up prelu2
I1130 23:14:41.037991 12652 net.cpp:157] Top shape: 1 48 9 9 (3888)
I1130 23:14:41.037994 12652 net.cpp:165] Memory required for data: 159984
I1130 23:14:41.037999 12652 layer_factory.hpp:77] Creating layer pool2
I1130 23:14:41.038008 12652 net.cpp:100] Creating Layer pool2
I1130 23:14:41.038012 12652 net.cpp:434] pool2 <- conv2
I1130 23:14:41.038018 12652 net.cpp:408] pool2 -> pool2
I1130 23:14:41.038058 12652 net.cpp:150] Setting up pool2
I1130 23:14:41.038065 12652 net.cpp:157] Top shape: 1 48 4 4 (768)
I1130 23:14:41.038079 12652 net.cpp:165] Memory required for data: 163056
I1130 23:14:41.038084 12652 layer_factory.hpp:77] Creating layer conv3
I1130 23:14:41.038092 12652 net.cpp:100] Creating Layer conv3
I1130 23:14:41.038096 12652 net.cpp:434] conv3 <- pool2
I1130 23:14:41.038102 12652 net.cpp:408] conv3 -> conv3
I1130 23:14:41.038805 12653 net.cpp:761] Ignoring source layer loss
I1130 23:14:41.038904 12652 net.cpp:150] Setting up conv3
I1130 23:14:41.038918 12652 net.cpp:157] Top shape: 1 64 3 3 (576)
I1130 23:14:41.038923 12652 net.cpp:165] Memory required for data: 165360
I1130 23:14:41.038929 12652 layer_factory.hpp:77] Creating layer prelu3
I1130 23:14:41.038939 12652 net.cpp:100] Creating Layer prelu3
I1130 23:14:41.038944 12652 net.cpp:434] prelu3 <- conv3
I1130 23:14:41.038949 12652 net.cpp:395] prelu3 -> conv3 (in-place)
I1130 23:14:41.039049 12652 net.cpp:150] Setting up prelu3
I1130 23:14:41.039057 12652 net.cpp:157] Top shape: 1 64 3 3 (576)
I1130 23:14:41.039073 12652 net.cpp:165] Memory required for data: 167664
I1130 23:14:41.039086 12652 layer_factory.hpp:77] Creating layer fc
I1130 23:14:41.039096 12652 net.cpp:100] Creating Layer fc
I1130 23:14:41.039100 12652 net.cpp:434] fc <- conv3
I1130 23:14:41.039106 12652 net.cpp:408] fc -> fc
I1130 23:14:41.040417 12652 net.cpp:150] Setting up fc
I1130 23:14:41.040436 12652 net.cpp:157] Top shape: 1 128 (128)
I1130 23:14:41.040439 12652 net.cpp:165] Memory required for data: 168176
I1130 23:14:41.040447 12652 layer_factory.hpp:77] Creating layer prelu4
I1130 23:14:41.040454 12652 net.cpp:100] Creating Layer prelu4
I1130 23:14:41.040458 12652 net.cpp:434] prelu4 <- fc
I1130 23:14:41.040469 12652 net.cpp:395] prelu4 -> fc (in-place)
I1130 23:14:41.040547 12652 net.cpp:150] Setting up prelu4
I1130 23:14:41.040555 12652 net.cpp:157] Top shape: 1 128 (128)
I1130 23:14:41.040557 12652 net.cpp:165] Memory required for data: 168688
I1130 23:14:41.040562 12652 layer_factory.hpp:77] Creating layer fc_prelu4_0_split
I1130 23:14:41.040568 12652 net.cpp:100] Creating Layer fc_prelu4_0_split
I1130 23:14:41.040572 12652 net.cpp:434] fc_prelu4_0_split <- fc
I1130 23:14:41.040577 12652 net.cpp:408] fc_prelu4_0_split -> fc_prelu4_0_split_0
I1130 23:14:41.040583 12652 net.cpp:408] fc_prelu4_0_split -> fc_prelu4_0_split_1
I1130 23:14:41.040594 12652 net.cpp:408] fc_prelu4_0_split -> fc_prelu4_0_split_2
I1130 23:14:41.040640 12652 net.cpp:150] Setting up fc_prelu4_0_split
I1130 23:14:41.040647 12652 net.cpp:157] Top shape: 1 128 (128)
I1130 23:14:41.040653 12652 net.cpp:157] Top shape: 1 128 (128)
I1130 23:14:41.040657 12652 net.cpp:157] Top shape: 1 128 (128)
I1130 23:14:41.040660 12652 net.cpp:165] Memory required for data: 170224
I1130 23:14:41.040664 12652 layer_factory.hpp:77] Creating layer score
I1130 23:14:41.040669 12652 net.cpp:100] Creating Layer score
I1130 23:14:41.040673 12652 net.cpp:434] score <- fc_prelu4_0_split_0
I1130 23:14:41.040678 12652 net.cpp:408] score -> score
I1130 23:14:41.040767 12652 net.cpp:150] Setting up score
I1130 23:14:41.040773 12652 net.cpp:157] Top shape: 1 2 (2)
I1130 23:14:41.040777 12652 net.cpp:165] Memory required for data: 170232
I1130 23:14:41.040783 12652 layer_factory.hpp:77] Creating layer prob
I1130 23:14:41.040789 12652 net.cpp:100] Creating Layer prob
I1130 23:14:41.040793 12652 net.cpp:434] prob <- score
I1130 23:14:41.040801 12652 net.cpp:408] prob -> prob
I1130 23:14:41.041301 12652 net.cpp:150] Setting up prob
I1130 23:14:41.041319 12652 net.cpp:157] Top shape: 1 2 (2)
I1130 23:14:41.041323 12652 net.cpp:165] Memory required for data: 170240
I1130 23:14:41.041328 12652 layer_factory.hpp:77] Creating layer bbox_pred
I1130 23:14:41.041337 12652 net.cpp:100] Creating Layer bbox_pred
I1130 23:14:41.041342 12652 net.cpp:434] bbox_pred <- fc_prelu4_0_split_1
I1130 23:14:41.041349 12652 net.cpp:408] bbox_pred -> bbox_pred
I1130 23:14:41.041461 12652 net.cpp:150] Setting up bbox_pred
I1130 23:14:41.041468 12652 net.cpp:157] Top shape: 1 4 (4)
I1130 23:14:41.041471 12652 net.cpp:165] Memory required for data: 170256
I1130 23:14:41.041479 12652 layer_factory.hpp:77] Creating layer landmark_pred
I1130 23:14:41.041484 12652 net.cpp:100] Creating Layer landmark_pred
I1130 23:14:41.041488 12652 net.cpp:434] landmark_pred <- fc_prelu4_0_split_2
I1130 23:14:41.041493 12652 net.cpp:408] landmark_pred -> landmark_pred
I1130 23:14:41.041594 12652 net.cpp:150] Setting up landmark_pred
I1130 23:14:41.041601 12652 net.cpp:157] Top shape: 1 10 (10)
I1130 23:14:41.041604 12652 net.cpp:165] Memory required for data: 170296
I1130 23:14:41.041616 12652 net.cpp:228] landmark_pred does not need backward computation.
I1130 23:14:41.041620 12652 net.cpp:228] bbox_pred does not need backward computation.
I1130 23:14:41.041625 12652 net.cpp:228] prob does not need backward computation.
I1130 23:14:41.041627 12652 net.cpp:228] score does not need backward computation.
…
I1130 23:18:21.494446 12698 solver.cpp:91] Creating training net from net file: proto/o_train_val.prototxt
I1130 23:18:21.495712 12698 net.cpp:322] The NetState phase (0) differed from the phase (1) specified by a rule in layer data
I1130 23:18:21.496003 12698 net.cpp:58] Initializing net from parameters: 
name: "oNet"
state {
  phase: TRAIN
}
layer {
  name: "data"
  type: "Python"
  top: "data"
  top: "bbox_target"
  top: "landmark_target"
  top: "label"
  include {
    phase: TRAIN
  }
  python_param {
    module: "layers.data_layer"
    layer: "FaceDataLayer"
  }
}
layer {
  name: "conv1"
  type: "Convolution"
  bottom: "data"
  top: "conv1"
  param {
    lr_mult: 1
    decay_mult: 1
  }
  param {
    lr_mult: 2
    decay_mult: 0
  }
  convolution_param {
    num_output: 32
    kernel_size: 3
    stride: 1
    weight_filler {
      type: "xavier"
    }
    bias_filler {
      type: "constant"
    }
  }
}
layer {
  name: "prelu1"
  type: "PReLU"
  bottom: "conv1"
  top: "conv1"
}
layer {
  name: "pool1"
  type: "Pooling"
  bottom: "conv1"
  top: "pool1"
  pooling_param {
    pool: MAX
    kernel_size: 3
    stride: 2
  }
}
layer {
  name: "conv2"
  type: "Convolution"
  bottom: "pool1"
  top: "conv2"
  param {
    lr_mult: 1
    decay_mult: 1
  }
  param {
    lr_mult: 2
    decay_mult: 0
  }
  convolution_param {
    num_output: 64
    kernel_size: 3
    stride: 1
    weight_filler {
      type: "xavier"
    }
    bias_filler {
      type: "constant"
    }
  }
}
layer {
  name: "prelu2"
  type: "PReLU"
  bottom: "conv2"
  top: "conv2"
}
layer {
  name: "pool2"
  type: "Pooling"
  bottom: "conv2"
  top: "pool2"
  pooling_param {
    pool: MAX
    kernel_size: 3
    stride: 2
  }
}
layer {
  name: "conv3"
  type: "Convolution"
  bottom: "pool2"
  top: "conv3"
  param {
    lr_mult: 1
    decay_mult: 1
  }
  param {
    lr_mult: 2
    decay_mult: 0
  }
  convolution_param {
    num_output: 64
    kernel_size: 2
    stride: 1
    weight_filler {
      type: "xavier"
    }
    bias_filler {
      type: "constant"
    }
  }
}
layer {
  name: "prelu3"
  type: "PReLU"
  bottom: "conv3"
  top: "conv3"
}
layer {
  name: "pool3"
  type: "Pooling"
  bottom: "conv3"
  top: "pool3"
  pooling_param {
    pool: MAX
    kernel_size: 2
    stride: 2
  }
}
layer {
  name: "conv4"
  type: "Convolution"
  bottom: "pool3"
  top: "conv4"
  param {
    lr_mult: 1
    decay_mult: 1
  }
  param {
    lr_mult: 2
    decay_mult: 0
  }
  convolution_param {
    num_output: 128
    kernel_size: 2
    stride: 1
    weight_filler {
      type: "xavier"
    }
    bias_filler {
      type: "constant"
    }
  }
}
layer {
  name: "prelu4"
  type: "PReLU"
  bottom: "conv4"
  top: "conv4"
}
layer {
  name: "fc"
  type: "InnerProduct"
  bottom: "conv4"
  top: "fc"
  param {
    lr_mult: 1
    decay_mult: 1
  }
  param {
    lr_mult: 2
    decay_mult: 0
  }
  inner_product_param {
    num_output: 256
    weight_filler {
      type: "xavier"
    }
    bias_filler {
      type: "constant"
    }
  }
}
layer {
  name: "prelu5"
  type: "PReLU"
  bottom: "fc"
  top: "fc"
}
layer {
  name: "score"
  type: "InnerProduct"
  bottom: "fc"
  top: "score"
  param {
    lr_mult: 1
    decay_mult: 1
  }
  param {
    lr_mult: 2
    decay_mult: 0
  }
  inner_product_param {
    num_output: 2
    weight_filler {
      type: "xavier"
    }
    bias_filler {
      type: "constant"
    }
  }
}
layer {
  name: "bbox_pred"
  type: "InnerProduct"
  bottom: "fc"
  top: "bbox_pred"
  param {
    lr_mult: 1
    decay_mult: 1
  }
  param {
    lr_mult: 2
    decay_mult: 0
  }
  inner_product_param {
    num_output: 4
    weight_filler {
      type: "xavier"
    }
    bias_filler {
      type: "constant"
    }
  }
}
layer {
  name: "landmark_pred"
  type: "InnerProduct"
  bottom: "fc"
  top: "landmark_pred"
  param {
    lr_mult: 1
    decay_mult: 1
  }
  param {
    lr_mult: 2
    decay_mult: 0
  }
  inner_product_param {
    num_output: 10
    weight_filler {
      type: "xavier"
    }
    bias_filler {
      type: "constant"
    }
  }
}
layer {
  name: "loss"
  type: "JfdaLoss"
  bottom: "score"
  bottom: "bbox_pred"
  bottom: "landmark_pred"
  bottom: "bbox_target"
  bottom: "landmark_target"
  bottom: "label"
  top: "face_cls_loss"
  top: "bbox_reg_loss"
  top: "landmark_reg_loss"
  top: "face_cls_neg_acc"
  top: "face_cls_pos_acc"
  loss_weight: 1
  loss_weight: 0.5
  loss_weight: 1
  loss_weight: 0
  loss_weight: 0
  jfda_loss_param {
    drop_loss_rate: 0.3
  }
}
I1130 23:18:21.496211 12698 layer_factory.hpp:77] Creating layer data
I1130 23:18:21.496870 12698 net.cpp:100] Creating Layer data
I1130 23:18:21.496897 12698 net.cpp:408] data -> data
I1130 23:18:21.496927 12698 net.cpp:408] data -> bbox_target
I1130 23:18:21.496942 12698 net.cpp:408] data -> landmark_target
I1130 23:18:21.496956 12698 net.cpp:408] data -> label
I1130 23:18:21.527624 12698 net.cpp:150] Setting up data
I1130 23:18:21.527662 12698 net.cpp:157] Top shape: 4 3 48 48 (27648)
I1130 23:18:21.527673 12698 net.cpp:157] Top shape: 4 4 (16)
I1130 23:18:21.527683 12698 net.cpp:157] Top shape: 4 10 (40)
I1130 23:18:21.527689 12698 net.cpp:157] Top shape: 4 (4)
I1130 23:18:21.527696 12698 net.cpp:165] Memory required for data: 110832
I1130 23:18:21.527704 12698 layer_factory.hpp:77] Creating layer conv1
I1130 23:18:21.527729 12698 net.cpp:100] Creating Layer conv1
I1130 23:18:21.527737 12698 net.cpp:434] conv1 <- data
I1130 23:18:21.527750 12698 net.cpp:408] conv1 -> conv1
I1130 23:18:21.783843 12698 net.cpp:150] Setting up conv1
I1130 23:18:21.783886 12698 net.cpp:157] Top shape: 4 32 46 46 (270848)
I1130 23:18:21.783891 12698 net.cpp:165] Memory required for data: 1194224
I1130 23:18:21.783911 12698 layer_factory.hpp:77] Creating layer prelu1
I1130 23:18:21.783932 12698 net.cpp:100] Creating Layer prelu1
I1130 23:18:21.783936 12698 net.cpp:434] prelu1 <- conv1
I1130 23:18:21.783942 12698 net.cpp:395] prelu1 -> conv1 (in-place)
I1130 23:18:21.785009 12698 net.cpp:150] Setting up prelu1
I1130 23:18:21.785024 12698 net.cpp:157] Top shape: 4 32 46 46 (270848)
I1130 23:18:21.785028 12698 net.cpp:165] Memory required for data: 2277616
I1130 23:18:21.785035 12698 layer_factory.hpp:77] Creating layer pool1
I1130 23:18:21.785045 12698 net.cpp:100] Creating Layer pool1
I1130 23:18:21.785049 12698 net.cpp:434] pool1 <- conv1
I1130 23:18:21.785053 12698 net.cpp:408] pool1 -> pool1
I1130 23:18:21.785092 12698 net.cpp:150] Setting up pool1
I1130 23:18:21.785100 12698 net.cpp:157] Top shape: 4 32 23 23 (67712)
I1130 23:18:21.785104 12698 net.cpp:165] Memory required for data: 2548464
I1130 23:18:21.785106 12698 layer_factory.hpp:77] Creating layer conv2
I1130 23:18:21.785118 12698 net.cpp:100] Creating Layer conv2
I1130 23:18:21.785122 12698 net.cpp:434] conv2 <- pool1
I1130 23:18:21.785126 12698 net.cpp:408] conv2 -> conv2
I1130 23:18:21.787212 12698 net.cpp:150] Setting up conv2
I1130 23:18:21.787227 12698 net.cpp:157] Top shape: 4 64 21 21 (112896)
I1130 23:18:21.787231 12698 net.cpp:165] Memory required for data: 3000048
I1130 23:18:21.787240 12698 layer_factory.hpp:77] Creating layer prelu2
I1130 23:18:21.787245 12698 net.cpp:100] Creating Layer prelu2
I1130 23:18:21.787250 12698 net.cpp:434] prelu2 <- conv2
I1130 23:18:21.787256 12698 net.cpp:395] prelu2 -> conv2 (in-place)
I1130 23:18:21.787345 12698 net.cpp:150] Setting up prelu2
I1130 23:18:21.787351 12698 net.cpp:157] Top shape: 4 64 21 21 (112896)
I1130 23:18:21.787354 12698 net.cpp:165] Memory required for data: 3451632
I1130 23:18:21.787359 12698 layer_factory.hpp:77] Creating layer pool2
I1130 23:18:21.787364 12698 net.cpp:100] Creating Layer pool2
I1130 23:18:21.787369 12698 net.cpp:434] pool2 <- conv2
I1130 23:18:21.787374 12698 net.cpp:408] pool2 -> pool2
I1130 23:18:21.787402 12698 net.cpp:150] Setting up pool2
I1130 23:18:21.787407 12698 net.cpp:157] Top shape: 4 64 10 10 (25600)
I1130 23:18:21.787410 12698 net.cpp:165] Memory required for data: 3554032
I1130 23:18:21.787413 12698 layer_factory.hpp:77] Creating layer conv3
I1130 23:18:21.787423 12698 net.cpp:100] Creating Layer conv3
I1130 23:18:21.787427 12698 net.cpp:434] conv3 <- pool2
I1130 23:18:21.787431 12698 net.cpp:408] conv3 -> conv3
I1130 23:18:21.789316 12698 net.cpp:150] Setting up conv3
I1130 23:18:21.789332 12698 net.cpp:157] Top shape: 4 64 9 9 (20736)
I1130 23:18:21.789336 12698 net.cpp:165] Memory required for data: 3636976
I1130 23:18:21.789342 12698 layer_factory.hpp:77] Creating layer prelu3
I1130 23:18:21.789351 12698 net.cpp:100] Creating Layer prelu3
I1130 23:18:21.789355 12698 net.cpp:434] prelu3 <- conv3
I1130 23:18:21.789360 12698 net.cpp:395] prelu3 -> conv3 (in-place)
I1130 23:18:21.789434 12698 net.cpp:150] Setting up prelu3
I1130 23:18:21.789441 12698 net.cpp:157] Top shape: 4 64 9 9 (20736)
I1130 23:18:21.789444 12698 net.cpp:165] Memory required for data: 3719920
I1130 23:18:21.789450 12698 layer_factory.hpp:77] Creating layer pool3
I1130 23:18:21.789458 12698 net.cpp:100] Creating Layer pool3
I1130 23:18:21.789461 12698 net.cpp:434] pool3 <- conv3
I1130 23:18:21.789465 12698 net.cpp:408] pool3 -> pool3
I1130 23:18:21.789495 12698 net.cpp:150] Setting up pool3
I1130 23:18:21.789500 12698 net.cpp:157] Top shape: 4 64 5 5 (6400)
I1130 23:18:21.789504 12698 net.cpp:165] Memory required for data: 3745520
I1130 23:18:21.789506 12698 layer_factory.hpp:77] Creating layer conv4
I1130 23:18:21.789515 12698 net.cpp:100] Creating Layer conv4
I1130 23:18:21.789520 12698 net.cpp:434] conv4 <- pool3
I1130 23:18:21.789525 12698 net.cpp:408] conv4 -> conv4
I1130 23:18:21.805454 12698 net.cpp:150] Setting up conv4
I1130 23:18:21.805491 12698 net.cpp:157] Top shape: 4 128 4 4 (8192)
I1130 23:18:21.805531 12698 net.cpp:165] Memory required for data: 3778288
I1130 23:18:21.805548 12698 layer_factory.hpp:77] Creating layer prelu4
I1130 23:18:21.805572 12698 net.cpp:100] Creating Layer prelu4
I1130 23:18:21.805583 12698 net.cpp:434] prelu4 <- conv4
I1130 23:18:21.805598 12698 net.cpp:395] prelu4 -> conv4 (in-place)
I1130 23:18:21.805716 12698 net.cpp:150] Setting up prelu4
I1130 23:18:21.805721 12698 net.cpp:157] Top shape: 4 128 4 4 (8192)
I1130 23:18:21.805724 12698 net.cpp:165] Memory required for data: 3811056
I1130 23:18:21.805728 12698 layer_factory.hpp:77] Creating layer fc
I1130 23:18:21.805738 12698 net.cpp:100] Creating Layer fc
I1130 23:18:21.805742 12698 net.cpp:434] fc <- conv4
I1130 23:18:21.805748 12698 net.cpp:408] fc -> fc
I1130 23:18:21.809881 12698 net.cpp:150] Setting up fc
I1130 23:18:21.809896 12698 net.cpp:157] Top shape: 4 256 (1024)
I1130 23:18:21.809900 12698 net.cpp:165] Memory required for data: 3815152
I1130 23:18:21.809906 12698 layer_factory.hpp:77] Creating layer prelu5
I1130 23:18:21.809911 12698 net.cpp:100] Creating Layer prelu5
I1130 23:18:21.809914 12698 net.cpp:434] prelu5 <- fc
I1130 23:18:21.809918 12698 net.cpp:395] prelu5 -> fc (in-place)
I1130 23:18:21.809983 12698 net.cpp:150] Setting up prelu5
I1130 23:18:21.809988 12698 net.cpp:157] Top shape: 4 256 (1024)
I1130 23:18:21.809991 12698 net.cpp:165] Memory required for data: 3819248
I1130 23:18:21.809995 12698 layer_factory.hpp:77] Creating layer fc_prelu5_0_split
I1130 23:18:21.810003 12698 net.cpp:100] Creating Layer fc_prelu5_0_split
I1130 23:18:21.810006 12698 net.cpp:434] fc_prelu5_0_split <- fc
I1130 23:18:21.810010 12698 net.cpp:408] fc_prelu5_0_split -> fc_prelu5_0_split_0
I1130 23:18:21.810016 12698 net.cpp:408] fc_prelu5_0_split -> fc_prelu5_0_split_1
I1130 23:18:21.810020 12698 net.cpp:408] fc_prelu5_0_split -> fc_prelu5_0_split_2
I1130 23:18:21.810060 12698 net.cpp:150] Setting up fc_prelu5_0_split
I1130 23:18:21.810065 12698 net.cpp:157] Top shape: 4 256 (1024)
I1130 23:18:21.810071 12698 net.cpp:157] Top shape: 4 256 (1024)
I1130 23:18:21.810077 12698 net.cpp:157] Top shape: 4 256 (1024)
I1130 23:18:21.810081 12698 net.cpp:165] Memory required for data: 3831536
I1130 23:18:21.810083 12698 layer_factory.hpp:77] Creating layer score
I1130 23:18:21.810091 12698 net.cpp:100] Creating Layer score
I1130 23:18:21.810094 12698 net.cpp:434] score <- fc_prelu5_0_split_0
I1130 23:18:21.810101 12698 net.cpp:408] score -> score
I1130 23:18:21.810184 12698 net.cpp:150] Setting up score
I1130 23:18:21.810190 12698 net.cpp:157] Top shape: 4 2 (8)
I1130 23:18:21.810194 12698 net.cpp:165] Memory required for data: 3831568
I1130 23:18:21.810200 12698 layer_factory.hpp:77] Creating layer bbox_pred
I1130 23:18:21.810209 12698 net.cpp:100] Creating Layer bbox_pred
I1130 23:18:21.810212 12698 net.cpp:434] bbox_pred <- fc_prelu5_0_split_1
I1130 23:18:21.810217 12698 net.cpp:408] bbox_pred -> bbox_pred
I1130 23:18:21.810295 12698 net.cpp:150] Setting up bbox_pred
I1130 23:18:21.810302 12698 net.cpp:157] Top shape: 4 4 (16)
I1130 23:18:21.810304 12698 net.cpp:165] Memory required for data: 3831632
I1130 23:18:21.810309 12698 layer_factory.hpp:77] Creating layer landmark_pred
I1130 23:18:21.810315 12698 net.cpp:100] Creating Layer landmark_pred
I1130 23:18:21.810318 12698 net.cpp:434] landmark_pred <- fc_prelu5_0_split_2
I1130 23:18:21.810322 12698 net.cpp:408] landmark_pred -> landmark_pred
I1130 23:18:21.810413 12698 net.cpp:150] Setting up landmark_pred
I1130 23:18:21.810420 12698 net.cpp:157] Top shape: 4 10 (40)
I1130 23:18:21.810422 12698 net.cpp:165] Memory required for data: 3831792
I1130 23:18:21.810426 12698 layer_factory.hpp:77] Creating layer loss
I1130 23:18:21.810438 12698 net.cpp:100] Creating Layer loss
I1130 23:18:21.810442 12698 net.cpp:434] loss <- score
I1130 23:18:21.810446 12698 net.cpp:434] loss <- bbox_pred
I1130 23:18:21.810449 12698 net.cpp:434] loss <- landmark_pred
I1130 23:18:21.810452 12698 net.cpp:434] loss <- bbox_target
…
test_initialization: false
average_loss: 500
I1201 01:18:09.928676 13889 solver.cpp:91] Creating training net from net file: proto/l_train_val.prototxt
I1201 01:18:09.948930 13889 net.cpp:322] The NetState phase (0) differed from the phase (1) specified by a rule in layer data
I1201 01:18:09.949759 13889 net.cpp:58] Initializing net from parameters: 
name: "lNet"
state {
  phase: TRAIN
}
layer {
  name: "data"
  type: "HDF5Data"
  top: "data"
  top: "target"
  include {
    phase: TRAIN
  }
  hdf5_data_param {
    source: "data/lnet_train.txt"
    batch_size: 128
  }
}
layer {
  name: "slicer_data"
  type: "Slice"
  bottom: "data"
  top: "data_1"
  top: "data_2"
  top: "data_3"
  top: "data_4"
  top: "data_5"
  slice_param {
    slice_point: 3
    slice_point: 6
    slice_point: 9
    slice_point: 12
    axis: 1
  }
}
layer {
  name: "slicer_target"
  type: "Slice"
  bottom: "target"
  top: "target_1"
  top: "target_2"
  top: "target_3"
  top: "target_4"
  top: "target_5"
  slice_param {
    slice_point: 2
    slice_point: 4
    slice_point: 6
    slice_point: 8
    axis: 1
  }
}
layer {
  name: "conv1_1"
  type: "Convolution"
  bottom: "data_1"
  top: "conv1_1"
  param {
    lr_mult: 1
    decay_mult: 1
  }
  param {
    lr_mult: 2
    decay_mult: 0
  }
  convolution_param {
    num_output: 28
    kernel_size: 3
    stride: 1
    weight_filler {
      type: "xavier"
    }
    bias_filler {
      type: "constant"
    }
  }
}
layer {
  name: "prelu1_1"
  type: "PReLU"
  bottom: "conv1_1"
  top: "conv1_1"
}
layer {
  name: "pool1_1"
  type: "Pooling"
  bottom: "conv1_1"
  top: "pool1_1"
  pooling_param {
    pool: MAX
    kernel_size: 3
    stride: 2
  }
}
layer {
  name: "conv2_1"
  type: "Convolution"
  bottom: "pool1_1"
  top: "conv2_1"
  param {
    lr_mult: 1
    decay_mult: 1
  }
  param {
    lr_mult: 2
    decay_mult: 0
  }
  convolution_param {
    num_output: 48
    kernel_size: 3
    stride: 1
    weight_filler {
      type: "xavier"
    }
    bias_filler {
      type: "constant"
    }
  }
}
layer {
  name: "prelu2_1"
  type: "PReLU"
  bottom: "conv2_1"
  top: "conv2_1"
}
layer {
  name: "pool2_1"
  type: "Pooling"
  bottom: "conv2_1"
  top: "pool2_1"
  pooling_param {
    pool: MAX
    kernel_size: 3
    stride: 2
  }
}
layer {
  name: "conv3_1"
  type: "Convolution"
  bottom: "pool2_1"
  top: "conv3_1"
  param {
    lr_mult: 1
    decay_mult: 1
  }
  param {
    lr_mult: 2
    decay_mult: 0
  }
  convolution_param {
    num_output: 64
    kernel_size: 2
    stride: 1
    weight_filler {
      type: "xavier"
    }
    bias_filler {
      type: "constant"
    }
  }
}
layer {
  name: "prelu3_1"
  type: "PReLU"
  bottom: "conv3_1"
  top: "conv3_1"
}
layer {
  name: "conv1_2"
  type: "Convolution"
  bottom: "data_2"
  top: "conv1_2"
  param {
    lr_mult: 1
    decay_mult: 1
  }
  param {
    lr_mult: 2
    decay_mult: 0
  }
  convolution_param {
    num_output: 28
    kernel_size: 3
    stride: 1
    weight_filler {
      type: "xavier"
    }
    bias_filler {
      type: "constant"
    }
  }
}
layer {
  name: "prelu1_2"
  type: "PReLU"
  bottom: "conv1_2"
  top: "conv1_2"
}
layer {
  name: "pool1_2"
  type: "Pooling"
  bottom: "conv1_2"
  top: "pool1_2"
  pooling_param {
    pool: MAX
    kernel_size: 3
    stride: 2
  }
}
layer {
  name: "conv2_2"
  type: "Convolution"
  bottom: "pool1_2"
  top: "conv2_2"
  param {
    lr_mult: 1
    decay_mult: 1
  }
  param {
    lr_mult: 2
    decay_mult: 0
  }
  convolution_param {
    num_output: 48
    kernel_size: 3
    stride: 1
    weight_filler {
      type: "xavier"
    }
    bias_filler {
      type: "constant"
    }
  }
}
layer {
  name: "prelu2_2"
  type: "PReLU"
  bottom: "conv2_2"
  top: "conv2_2"
}
layer {
  name: "pool2_2"
  type: "Pooling"
  bottom: "conv2_2"
  top: "pool2_2"
  pooling_param {
    pool: MAX
    kernel_size: 3
    stride: 2
  }
}
layer {
  name: "conv3_2"
  type: "Convolution"
  bottom: "pool2_2"
  top: "conv3_2"
  param {
    lr_mult: 1
    decay_mult: 1
  }
  param {
    lr_mult: 2
    decay_mult: 0
  }
  convolution_param {
    num_output: 64
    kernel_size: 2
    stride: 1
    weight_filler {
      type: "xavier"
    }
    bias_filler {
      type: "constant"
    }
  }
}
layer {
  name: "prelu3_2"
  type: "PReLU"
  bottom: "conv3_2"
  top: "conv3_2"
}
layer {
  name: "conv1_3"
  type: "Convolution"
  bottom: "data_3"
  top: "conv1_3"
  param {
    lr_mult: 1
    decay_mult: 1
  }
  param {
    lr_mult: 2
    decay_mult: 0
  }
  convolution_param {
    num_output: 28
    kernel_size: 3
    stride: 1
    weight_filler {
      type: "xavier"
    }
    bias_filler {
      type: "constant"
    }
  }
}
layer {
  name: "prelu1_3"
  type: "PReLU"
  bottom: "conv1_3"
  top: "conv1_3"
}
layer {
  name: "pool1_3"
  type: "Pooling"
  bottom: "conv1_3"
  top: "pool1_3"
  pooling_param {
    pool: MAX
    kernel_size: 3
    stride: 2
  }
}
layer {
  name: "conv2_3"
  type: "Convolution"
  bottom: "pool1_3"
  top: "conv2_3"
  param {
    lr_mult: 1
    decay_mult: 1
  }
  param {
    lr_mult: 2
    decay_mult: 0
  }
  convolution_param {
    num_output: 48
    kernel_size: 3
    stride: 1
    weight_filler {
      type: "xavier"
    }
    bias_filler {
      type: "constant"
    }
  }
}
layer {
  name: "prelu2_3"
  type: "PReLU"
  bottom: "conv2_3"
  top: "conv2_3"
}
layer {
  name: "pool2_3"
  type: "Pooling"
  bottom: "conv2_3"
  top: "pool2_3"
  pooling_param {
    pool: MAX
    kernel_size: 3
    stride: 2
  }
}
layer {
  name: "conv3_3"
  type: "Convolution"
  bottom: "pool2_3"
  top: "conv3_3"
  param {
    lr_mult: 1
    decay_mult: 1
  }
  param {
    lr_mult: 2
    decay_mult: 0
  }
  convolution_param {
    num_output: 64
    kernel_size: 2
    stride: 1
    weight_filler {
      type: "xavier"
    }
    bias_filler {
      type: "constant"
    }
  }
}
layer {
  name: "prelu3_3"
  type: "PReLU"
  bottom: "conv3_3"
  top: "conv3_3"
}
layer {
  name: "conv1_4"
  type: "Convolution"
  bottom: "data_4"
  top: "conv1_4"
  param {
    lr_mult: 1
    decay_mult: 1
  }
  param {
    lr_mult: 2
    decay_mult: 0
  }
  convolution_param {
    num_output: 28
    kernel_size: 3
    stride: 1
    weight_filler {
      type: "xavier"
    }
    bias_filler {
      type: "constant"
    }
  }
}
layer {
  name: "prelu1_4"
  type: "PReLU"
  bottom: "conv1_4"
  top: "conv1_4"
}
layer {
  name: "pool1_4"
  type: "Pooling"
  bottom: "conv1_4"
  top: "pool1_4"
  pooling_param {
    pool: MAX
    kernel_size: 3
    stride: 2
  }
}
layer {
  name: "conv2_4"
  type: "Convolution"
  bottom: "pool1_4"
  top: "conv2_4"
  param {
    lr_mult: 1
    decay_mult: 1
  }
  param {
    lr_mult: 2
    decay_mult: 0
  }
  convolution_param {
    num_output: 48
    kernel_size: 3
    stride: 1
    weight_filler {
      type: "xavier"
    }
    bias_filler {
      type: "constant"
    }
  }
}
layer {
  name: "prelu2_4"
  type: "PReLU"
  bottom: "conv2_4"
  top: "conv2_4"
}
layer {
  name: "pool2_4"
  type: "Pooling"
  bottom: "conv2_4"
  top: "pool2_4"
  pooling_param {
    pool: MAX
    kernel_size: 3
    stride: 2
  }
}
layer {
  name: "conv3_4"
  type: "Convolution"
  bottom: "pool2_4"
  top: "conv3_4"
  param {
    lr_mult: 1
    decay_mult: 1
  }
  param {
    lr_mult: 2
    decay_mult: 0
  }
  convolution_param {
    num_output: 64
    kernel_size: 2
    stride: 1
    weight_filler {
      type: "xavier"
    }
    bias_filler {
      type: "constant"
    }
  }
}
layer {
  name: "prelu3_4"
  type: "PReLU"
  bottom: "conv3_4"
  top: "conv3_4"
}
layer {
  name: "conv1_5"
  type: "Convolution"
  bottom: "data_5"
  top: "conv1_5"
  param {
    lr_mult: 1
    decay_mult: 1
  }
  param {
    lr_mult: 2
    decay_mult: 0
  }
  convolution_param {
    num_output: 28
    kernel_size: 3
    stride: 1
    weight_filler {
      type: "xavier"
    }
    bias_filler {
      type: "constant"
    }
  }
}
layer {
  name: "prelu1_5"
  type: "PReLU"
  bottom: "conv1_5"
  top: "conv1_5"
}
layer {
  name: "pool1_5"
  type: "Pooling"
  bottom: "conv1_5"
  top: "pool1_5"
  pooling_param {
    pool: MAX
    kernel_size: 3
    stride: 2
  }
}
layer {
  name: "conv2_5"
  type: "Convolution"
  bottom: "pool1_5"
  top: "conv2_5"
  param {
    lr_mult: 1
    decay_mult: 1
  }
  param {
    lr_mult: 2
    decay_mult: 0
  }
  convolution_param {
    num_output: 48
    kernel_size: 3
    stride: 1
    weight_filler {
      type: "xavier"
    }
    bias_filler {
      type: "constant"
    }
  }
}
layer {
  name: "prelu2_5"
  type: "PReLU"
  bottom: "conv2_5"
  top: "conv2_5"
}
layer {
  name: "pool2_5"
  type: "Pooling"
  bottom: "conv2_5"
  top: "pool2_5"
  pooling_param {
    pool: MAX
    kernel_size: 3
    stride: 2
  }
}
layer {
  name: "conv3_5"
  type: "Convolution"
  bottom: "pool2_5"
  top: "conv3_5"
  param {
    lr_mult: 1
    decay_mult: 1
  }
  param {
    lr_mult: 2
    decay_mult: 0
  }
  convolution_param {
    num_output: 64
    kernel_size: 2
    stride: 1
    weight_filler {
      type: "xavier"
    }
    bias_filler {
      type: "constant"
    }
  }
}
layer {
  name: "prelu3_5"
  type: "PReLU"
  bottom: "conv3_5"
  top: "conv3_5"
}
layer {
  name: "concat"
  type: "Concat"
  bottom: "conv3_1"
  bottom: "conv3_2"
  bottom: "conv3_3"
  bottom: "conv3_4"
  bottom: "conv3_5"
  top: "concat"
  concat_param {
    axis: 1
  }
}
layer {
  name: "fc4"
  type: "InnerProduct"
  bottom: "concat"
  top: "fc4"
  param {
    lr_mult: 1
    decay_mult: 1
  }
  param {
    lr_mult: 2
    decay_mult: 0
  }
  inner_product_param {
    num_output: 256
    weight_filler {
      type: "xavier"
    }
    bias_filler {
      type: "constant"
    }
  }
}
layer {
  name: "prelu4"
  type: "PReLU"
  bottom: "fc4"
  top: "fc4"
}
layer {
  name: "fc5_1"
  type: "InnerProduct"
  bottom: "fc4"
  top: "fc5_1"
  param {
    lr_mult: 1
    decay_mult: 1
  }
  param {
    lr_mult: 2
    decay_mult: 0
  }
  inner_product_param {
    num_output: 64
    weight_filler {
      type: "xavier"
    }
    bias_filler {
      type: "constant"
    }
  }
}
layer {
  name: "prelu5_1"
  type: "PReLU"
  bottom: "fc5_1"
  top: "fc5_1"
}
layer {
  name: "fc6_1"
  type: "InnerProduct"
  bottom: "fc5_1"
  top: "fc6_1"
  param {
    lr_mult: 1
    decay_mult: 1
  }
  param {
    lr_mult: 2
    decay_mult: 0
  }
  inner_product_param {
    num_output: 2
    weight_filler {
      type: "xavier"
    }
    bias_filler {
      type: "constant"
    }
  }
}
layer {
  name: "loss_1"
  type: "EuclideanLoss"
  bottom: "fc6_1"
  bottom: "target_1"
  top: "loss_1"
}
layer {
  name: "fc5_2"
  type: "InnerProduct"
  bottom: "fc4"
  top: "fc5_2"
  param {
    lr_mult: 1
    decay_mult: 1
  }
  param {
    lr_mult: 2
    decay_mult: 0
  }
  inner_product_param {
    num_output: 64
    weight_filler {
      type: "xavier"
    }
    bias_filler {
      type: "constant"
    }
  }
}
layer {
  name: "prelu5_2"
  type: "PReLU"
  bottom: "fc5_2"
  top: "fc5_2"
}
layer {
  name: "fc6_2"
  type: "InnerProduct"
  bottom: "fc5_2"
  top: "fc6_2"
  param {
    lr_mult: 1
    decay_mult: 1
  }
  param {
    lr_mult: 2
    decay_mult: 0
  }
  inner_product_param {
    num_output: 2
    weight_filler {
      type: "xavier"
    }
    bias_filler {
      type: "constant"
    }
  }
}
layer {
  name: "loss_2"
  type: "EuclideanLoss"
  bottom: "fc6_2"
  bottom: "target_2"
  top: "loss_2"
}
layer {
  name: "fc5_3"
  type: "InnerProduct"
  bottom: "fc4"
  top: "fc5_3"
  param {
    lr_mult: 1
    decay_mult: 1
  }
  param {
    lr_mult: 2
    decay_mult: 0
  }
  inner_product_param {
    num_output: 64
    weight_filler {
      type: "xavier"
    }
    bias_filler {
      type: "constant"
    }
  }
}
layer {
  name: "prelu5_3"
  type: "PReLU"
  bottom: "fc5_3"
  top: "fc5_3"
}
layer {
  name: "fc6_3"
  type: "InnerProduct"
  bottom: "fc5_3"
  top: "fc6_3"
  param {
    lr_mult: 1
    decay_mult: 1
  }
  param {
    lr_mult: 2
    decay_mult: 0
  }
  inner_product_param {
    num_output: 2
    weight_filler {
      type: "xavier"
    }
    bias_filler {
      type: "constant"
    }
  }
}
layer {
  name: "loss_3"
  type: "EuclideanLoss"
  bottom: "fc6_3"
  bottom: "target_3"
  top: "loss_3"
}
layer {
  name: "fc5_4"
  type: "InnerProduct"
  bottom: "fc4"
  top: "fc5_4"
  param {
    lr_mult: 1
    decay_mult: 1
  }
  param {
    lr_mult: 2
    decay_mult: 0
  }
  inner_product_param {
    num_output: 64
    weight_filler {
      type: "xavier"
    }
    bias_filler {
      type: "constant"
    }
  }
}
layer {
  name: "prelu5_4"
  type: "PReLU"
  bottom: "fc5_4"
  top: "fc5_4"
}
layer {
  name: "fc6_4"
  type: "InnerProduct"
  bottom: "fc5_4"
  top: "fc6_4"
  param {
    lr_mult: 1
    decay_mult: 1
  }
  param {
    lr_mult: 2
    decay_mult: 0
  }
  inner_product_param {
    num_output: 2
    weight_filler {
      type: "xavier"
    }
    bias_filler {
      type: "constant"
    }
  }
}
layer {
  name: "loss_4"
  type: "EuclideanLoss"
  bottom: "fc6_4"
  bottom: "target_4"
  top: "loss_4"
}
layer {
  name: "fc5_5"
  type: "InnerProduct"
  bottom: "fc4"
  top: "fc5_5"
  param {
    lr_mult: 1
    decay_mult: 1
  }
  param {
    lr_mult: 2
    decay_mult: 0
  }
  inner_product_param {
    num_output: 64
    weight_filler {
      type: "xavier"
    }
    bias_filler {
      type: "constant"
    }
  }
}
layer {
  name: "prelu5_5"
  type: "PReLU"
  bottom: "fc5_5"
  top: "fc5_5"
}
layer {
  name: "fc6_5"
  type: "InnerProduct"
  bottom: "fc5_5"
  top: "fc6_5"
  param {
    lr_mult: 1
    decay_mult: 1
  }
  param {
    lr_mult: 2
    decay_mult: 0
  }
  inner_product_param {
    num_output: 2
    weight_filler {
      type: "xavier"
    }
    bias_filler {
      type: "constant"
    }
  }
}
layer {
  name: "loss_5"
  type: "EuclideanLoss"
  bottom: "fc6_5"
  bottom: "target_5"
  top: "loss_5"
}
I1201 01:18:09.962822 13889 layer_factory.hpp:77] Creating layer data
I1201 01:18:09.969449 13889 net.cpp:100] Creating Layer data
I1201 01:18:09.969496 13889 net.cpp:408] data -> data
I1201 01:18:09.969532 13889 net.cpp:408] data -> target
I1201 01:18:09.969560 13889 hdf5_data_layer.cpp:79] Loading list of HDF5 filenames from: data/lnet_train.txt
I1201 01:18:09.969616 13889 hdf5_data_layer.cpp:93] Number of HDF5 files: 5
I1201 01:18:10.075857 13889 hdf5.cpp:32] Datatype class: H5T_FLOAT
I1201 01:18:37.322778 13889 net.cpp:150] Setting up data
I1201 01:18:37.322868 13889 net.cpp:157] Top shape: 128 15 24 24 (1105920)
I1201 01:18:37.322882 13889 net.cpp:157] Top shape: 128 10 (1280)
I1201 01:18:37.322890 13889 net.cpp:165] Memory required for data: 4428800
I1201 01:18:37.322911 13889 layer_factory.hpp:77] Creating layer slicer_data
I1201 01:18:37.367084 13889 net.cpp:100] Creating Layer slicer_data
I1201 01:18:37.367112 13889 net.cpp:434] slicer_data <- data
I1201 01:18:37.367136 13889 net.cpp:408] slicer_data -> data_1
I1201 01:18:37.367164 13889 net.cpp:408] slicer_data -> data_2
I1201 01:18:37.367179 13889 net.cpp:408] slicer_data -> data_3
I1201 01:18:37.367194 13889 net.cpp:408] slicer_data -> data_4
I1201 01:18:37.367208 13889 net.cpp:408] slicer_data -> data_5
I1201 01:18:37.367367 13889 net.cpp:150] Setting up slicer_data
I1201 01:18:37.367384 13889 net.cpp:157] Top shape: 128 3 24 24 (221184)
I1201 01:18:37.367395 13889 net.cpp:157] Top shape: 128 3 24 24 (221184)
I1201 01:18:37.367404 13889 net.cpp:157] Top shape: 128 3 24 24 (221184)
I1201 01:18:37.367413 13889 net.cpp:157] Top shape: 128 3 24 24 (221184)
I1201 01:18:37.367422 13889 net.cpp:157] Top shape: 128 3 24 24 (221184)
I1201 01:18:37.367441 13889 net.cpp:165] Memory required for data: 8852480
I1201 01:18:37.367451 13889 layer_factory.hpp:77] Creating layer slicer_target
I1201 01:18:37.367470 13889 net.cpp:100] Creating Layer slicer_target
I1201 01:18:37.367480 13889 net.cpp:434] slicer_target <- target
I1201 01:18:37.367492 13889 net.cpp:408] slicer_target -> target_1
I1201 01:18:37.367511 13889 net.cpp:408] slicer_target -> target_2
I1201 01:18:37.367527 13889 net.cpp:408] slicer_target -> target_3
I1201 01:18:37.367540 13889 net.cpp:408] slicer_target -> target_4
I1201 01:18:37.367552 13889 net.cpp:408] slicer_target -> target_5
I1201 01:18:37.367681 13889 net.cpp:150] Setting up slicer_target
I1201 01:18:37.367696 13889 net.cpp:157] Top shape: 128 2 (256)
I1201 01:18:37.367705 13889 net.cpp:157] Top shape: 128 2 (256)
I1201 01:18:37.367715 13889 net.cpp:157] Top shape: 128 2 (256)
I1201 01:18:37.367723 13889 net.cpp:157] Top shape: 128 2 (256)
I1201 01:18:37.367733 13889 net.cpp:157] Top shape: 128 2 (256)
I1201 01:18:37.367739 13889 net.cpp:165] Memory required for data: 8857600
I1201 01:18:37.367748 13889 layer_factory.hpp:77] Creating layer conv1_1
I1201 01:18:37.367781 13889 net.cpp:100] Creating Layer conv1_1
I1201 01:18:37.367791 13889 net.cpp:434] conv1_1 <- data_1
I1201 01:18:37.367808 13889 net.cpp:408] conv1_1 -> conv1_1
I1201 01:18:39.196588 13889 net.cpp:150] Setting up conv1_1
I1201 01:18:39.196687 13889 net.cpp:157] Top shape: 128 28 22 22 (1734656)
I1201 01:18:39.196699 13889 net.cpp:165] Memory required for data: 15796224
I1201 01:18:39.196756 13889 layer_factory.hpp:77] Creating layer prelu1_1
I1201 01:18:39.215855 13889 net.cpp:100] Creating Layer prelu1_1
I1201 01:18:39.215885 13889 net.cpp:434] prelu1_1 <- conv1_1
I1201 01:18:39.215903 13889 net.cpp:395] prelu1_1 -> conv1_1 (in-place)
I1201 01:18:39.218386 13889 net.cpp:150] Setting up prelu1_1
I1201 01:18:39.218426 13889 net.cpp:157] Top shape: 128 28 22 22 (1734656)
I1201 01:18:39.218437 13889 net.cpp:165] Memory required for data: 22734848
I1201 01:18:39.218457 13889 layer_factory.hpp:77] Creating layer pool1_1
I1201 01:18:39.218497 13889 net.cpp:100] Creating Layer pool1_1
I1201 01:18:39.218510 13889 net.cpp:434] pool1_1 <- conv1_1
I1201 01:18:39.218535 13889 net.cpp:408] pool1_1 -> pool1_1
I1201 01:18:39.218626 13889 net.cpp:150] Setting up pool1_1
I1201 01:18:39.218642 13889 net.cpp:157] Top shape: 128 28 11 11 (433664)
I1201 01:18:39.218650 13889 net.cpp:165] Memory required for data: 24469504
I1201 01:18:39.218658 13889 layer_factory.hpp:77] Creating layer conv2_1
I1201 01:18:39.218708 13889 net.cpp:100] Creating Layer conv2_1
I1201 01:18:39.218719 13889 net.cpp:434] conv2_1 <- pool1_1
I1201 01:18:39.218732 13889 net.cpp:408] conv2_1 -> conv2_1
I1201 01:18:39.222906 13889 net.cpp:150] Setting up conv2_1
I1201 01:18:39.222949 13889 net.cpp:157] Top shape: 128 48 9 9 (497664)
I1201 01:18:39.222960 13889 net.cpp:165] Memory required for data: 26460160
I1201 01:18:39.223001 13889 layer_factory.hpp:77] Creating layer prelu2_1
I1201 01:18:39.223019 13889 net.cpp:100] Creating Layer prelu2_1
I1201 01:18:39.223029 13889 net.cpp:434] prelu2_1 <- conv2_1
I1201 01:18:39.223042 13889 net.cpp:395] prelu2_1 -> conv2_1 (in-place)
I1201 01:18:39.225414 13889 net.cpp:150] Setting up prelu2_1
I1201 01:18:39.225452 13889 net.cpp:157] Top shape: 128 48 9 9 (497664)
I1201 01:18:39.225463 13889 net.cpp:165] Memory required for data: 28450816
I1201 01:18:39.225477 13889 layer_factory.hpp:77] Creating layer pool2_1
I1201 01:18:39.225528 13889 net.cpp:100] Creating Layer pool2_1
I1201 01:18:39.225540 13889 net.cpp:434] pool2_1 <- conv2_1
I1201 01:18:39.225554 13889 net.cpp:408] pool2_1 -> pool2_1
I1201 01:18:39.225639 13889 net.cpp:150] Setting up pool2_1
I1201 01:18:39.225654 13889 net.cpp:157] Top shape: 128 48 4 4 (98304)
I1201 01:18:39.225662 13889 net.cpp:165] Memory required for data: 28844032
I1201 01:18:39.225670 13889 layer_factory.hpp:77] Creating layer conv3_1
I1201 01:18:39.225720 13889 net.cpp:100] Creating Layer conv3_1
I1201 01:18:39.225742 13889 net.cpp:434] conv3_1 <- pool2_1
I1201 01:18:39.225757 13889 net.cpp:408] conv3_1 -> conv3_1
I1201 01:18:39.228132 13889 net.cpp:150] Setting up conv3_1
I1201 01:18:39.228170 13889 net.cpp:157] Top shape: 128 64 3 3 (73728)
I1201 01:18:39.228181 13889 net.cpp:165] Memory required for data: 29138944
I1201 01:18:39.228196 13889 layer_factory.hpp:77] Creating layer prelu3_1
I1201 01:18:39.228226 13889 net.cpp:100] Creating Layer prelu3_1
I1201 01:18:39.228236 13889 net.cpp:434] prelu3_1 <- conv3_1
I1201 01:18:39.228250 13889 net.cpp:395] prelu3_1 -> conv3_1 (in-place)
I1201 01:18:39.228430 13889 net.cpp:150] Setting up prelu3_1
I1201 01:18:39.228446 13889 net.cpp:157] Top shape: 128 64 3 3 (73728)
I1201 01:18:39.228452 13889 net.cpp:165] Memory required for data: 29433856
I1201 01:18:39.228469 13889 layer_factory.hpp:77] Creating layer conv1_2
I1201 01:18:39.228502 13889 net.cpp:100] Creating Layer conv1_2
I1201 01:18:39.228513 13889 net.cpp:434] conv1_2 <- data_2
I1201 01:18:39.228533 13889 net.cpp:408] conv1_2 -> conv1_2
I1201 01:18:39.230595 13889 net.cpp:150] Setting up conv1_2
I1201 01:18:39.230633 13889 net.cpp:157] Top shape: 128 28 22 22 (1734656)
I1201 01:18:39.230643 13889 net.cpp:165] Memory required for data: 36372480
I1201 01:18:39.230659 13889 layer_factory.hpp:77] Creating layer prelu1_2
I1201 01:18:39.230690 13889 net.cpp:100] Creating Layer prelu1_2
I1201 01:18:39.230700 13889 net.cpp:434] prelu1_2 <- conv1_2
I1201 01:18:39.230712 13889 net.cpp:395] prelu1_2 -> conv1_2 (in-place)
I1201 01:18:39.230896 13889 net.cpp:150] Setting up prelu1_2
I1201 01:18:39.230912 13889 net.cpp:157] Top shape: 128 28 22 22 (1734656)
I1201 01:18:39.230919 13889 net.cpp:165] Memory required for data: 43311104
I1201 01:18:39.230942 13889 layer_factory.hpp:77] Creating layer pool1_2
I1201 01:18:39.230957 13889 net.cpp:100] Creating Layer pool1_2
I1201 01:18:39.230964 13889 net.cpp:434] pool1_2 <- conv1_2
I1201 01:18:39.230976 13889 net.cpp:408] pool1_2 -> pool1_2
I1201 01:18:39.231046 13889 net.cpp:150] Setting up pool1_2
I1201 01:18:39.231060 13889 net.cpp:157] Top shape: 128 28 11 11 (433664)
I1201 01:18:39.231077 13889 net.cpp:165] Memory required for data: 45045760
I1201 01:18:39.231092 13889 layer_factory.hpp:77] Creating layer conv2_2
I1201 01:18:39.231111 13889 net.cpp:100] Creating Layer conv2_2
I1201 01:18:39.231119 13889 net.cpp:434] conv2_2 <- pool1_2
I1201 01:18:39.231132 13889 net.cpp:408] conv2_2 -> conv2_2
I1201 01:18:39.233309 13889 net.cpp:150] Setting up conv2_2
I1201 01:18:39.233346 13889 net.cpp:157] Top shape: 128 48 9 9 (497664)
I1201 01:18:39.233356 13889 net.cpp:165] Memory required for data: 47036416
I1201 01:18:39.233372 13889 layer_factory.hpp:77] Creating layer prelu2_2
I1201 01:18:39.233386 13889 net.cpp:100] Creating Layer prelu2_2
I1201 01:18:39.233395 13889 net.cpp:434] prelu2_2 <- conv2_2
I1201 01:18:39.233407 13889 net.cpp:395] prelu2_2 -> conv2_2 (in-place)
I1201 01:18:39.233587 13889 net.cpp:150] Setting up prelu2_2
I1201 01:18:39.233602 13889 net.cpp:157] Top shape: 128 48 9 9 (497664)
I1201 01:18:39.233608 13889 net.cpp:165] Memory required for data: 49027072
I1201 01:18:39.233618 13889 layer_factory.hpp:77] Creating layer pool2_2
I1201 01:18:39.233650 13889 net.cpp:100] Creating Layer pool2_2
I1201 01:18:39.233660 13889 net.cpp:434] pool2_2 <- conv2_2
I1201 01:18:39.233672 13889 net.cpp:408] pool2_2 -> pool2_2
I1201 01:18:39.233743 13889 net.cpp:150] Setting up pool2_2
I1201 01:18:39.233757 13889 net.cpp:157] Top shape: 128 48 4 4 (98304)
I1201 01:18:39.233764 13889 net.cpp:165] Memory required for data: 49420288
I1201 01:18:39.233772 13889 layer_factory.hpp:77] Creating layer conv3_2
I1201 01:18:39.233789 13889 net.cpp:100] Creating Layer conv3_2
I1201 01:18:39.233798 13889 net.cpp:434] conv3_2 <- pool2_2
I1201 01:18:39.233809 13889 net.cpp:408] conv3_2 -> conv3_2
I1201 01:18:39.235954 13889 net.cpp:150] Setting up conv3_2
I1201 01:18:39.235992 13889 net.cpp:157] Top shape: 128 64 3 3 (73728)
I1201 01:18:39.236002 13889 net.cpp:165] Memory required for data: 49715200
I1201 01:18:39.236032 13889 layer_factory.hpp:77] Creating layer prelu3_2
I1201 01:18:39.236048 13889 net.cpp:100] Creating Layer prelu3_2
I1201 01:18:39.236057 13889 net.cpp:434] prelu3_2 <- conv3_2
I1201 01:18:39.236090 13889 net.cpp:395] prelu3_2 -> conv3_2 (in-place)
I1201 01:18:39.236279 13889 net.cpp:150] Setting up prelu3_2
I1201 01:18:39.236295 13889 net.cpp:157] Top shape: 128 64 3 3 (73728)
I1201 01:18:39.236304 13889 net.cpp:165] Memory required for data: 50010112
I1201 01:18:39.236315 13889 layer_factory.hpp:77] Creating layer conv1_3
I1201 01:18:39.236349 13889 net.cpp:100] Creating Layer conv1_3
I1201 01:18:39.236359 13889 net.cpp:434] conv1_3 <- data_3
I1201 01:18:39.236372 13889 net.cpp:408] conv1_3 -> conv1_3
I1201 01:18:39.237735 13889 net.cpp:150] Setting up conv1_3
I1201 01:18:39.237766 13889 net.cpp:157] Top shape: 128 28 22 22 (1734656)
I1201 01:18:39.237774 13889 net.cpp:165] Memory required for data: 56948736
I1201 01:18:39.237802 13889 layer_factory.hpp:77] Creating layer prelu1_3
I1201 01:18:39.237815 13889 net.cpp:100] Creating Layer prelu1_3
I1201 01:18:39.237824 13889 net.cpp:434] prelu1_3 <- conv1_3
I1201 01:18:39.237835 13889 net.cpp:395] prelu1_3 -> conv1_3 (in-place)
I1201 01:18:39.238006 13889 net.cpp:150] Setting up prelu1_3
I1201 01:18:39.238020 13889 net.cpp:157] Top shape: 128 28 22 22 (1734656)
I1201 01:18:39.238026 13889 net.cpp:165] Memory required for data: 63887360
I1201 01:18:39.238037 13889 layer_factory.hpp:77] Creating layer pool1_3
I1201 01:18:39.238059 13889 net.cpp:100] Creating Layer pool1_3
I1201 01:18:39.238077 13889 net.cpp:434] pool1_3 <- conv1_3
I1201 01:18:39.238095 13889 net.cpp:408] pool1_3 -> pool1_3
I1201 01:18:39.238167 13889 net.cpp:150] Setting up pool1_3
I1201 01:18:39.238179 13889 net.cpp:157] Top shape: 128 28 11 11 (433664)
I1201 01:18:39.238185 13889 net.cpp:165] Memory required for data: 65622016
I1201 01:18:39.238193 13889 layer_factory.hpp:77] Creating layer conv2_3
I1201 01:18:39.238209 13889 net.cpp:100] Creating Layer conv2_3
I1201 01:18:39.238215 13889 net.cpp:434] conv2_3 <- pool1_3
I1201 01:18:39.238227 13889 net.cpp:408] conv2_3 -> conv2_3
I1201 01:18:39.240252 13889 net.cpp:150] Setting up conv2_3
I1201 01:18:39.240288 13889 net.cpp:157] Top shape: 128 48 9 9 (497664)
I1201 01:18:39.240296 13889 net.cpp:165] Memory required for data: 67612672
I1201 01:18:39.240312 13889 layer_factory.hpp:77] Creating layer prelu2_3
I1201 01:18:39.240325 13889 net.cpp:100] Creating Layer prelu2_3
I1201 01:18:39.240334 13889 net.cpp:434] prelu2_3 <- conv2_3
I1201 01:18:39.240361 13889 net.cpp:395] prelu2_3 -> conv2_3 (in-place)
I1201 01:18:39.240538 13889 net.cpp:150] Setting up prelu2_3
I1201 01:18:39.240553 13889 net.cpp:157] Top shape: 128 48 9 9 (497664)
I1201 01:18:39.240561 13889 net.cpp:165] Memory required for data: 69603328
I1201 01:18:39.240571 13889 layer_factory.hpp:77] Creating layer pool2_3
I1201 01:18:39.240582 13889 net.cpp:100] Creating Layer pool2_3
I1201 01:18:39.240589 13889 net.cpp:434] pool2_3 <- conv2_3
I1201 01:18:39.240602 13889 net.cpp:408] pool2_3 -> pool2_3
I1201 01:18:39.240666 13889 net.cpp:150] Setting up pool2_3
I1201 01:18:39.240677 13889 net.cpp:157] Top shape: 128 48 4 4 (98304)
I1201 01:18:39.240684 13889 net.cpp:165] Memory required for data: 69996544
I1201 01:18:39.240702 13889 layer_factory.hpp:77] Creating layer conv3_3
I1201 01:18:39.240727 13889 net.cpp:100] Creating Layer conv3_3
I1201 01:18:39.240736 13889 net.cpp:434] conv3_3 <- pool2_3
I1201 01:18:39.240747 13889 net.cpp:408] conv3_3 -> conv3_3
I1201 01:18:39.242841 13889 net.cpp:150] Setting up conv3_3
I1201 01:18:39.242877 13889 net.cpp:157] Top shape: 128 64 3 3 (73728)
I1201 01:18:39.242887 13889 net.cpp:165] Memory required for data: 70291456
I1201 01:18:39.242900 13889 layer_factory.hpp:77] Creating layer prelu3_3
I1201 01:18:39.242920 13889 net.cpp:100] Creating Layer prelu3_3
I1201 01:18:39.242929 13889 net.cpp:434] prelu3_3 <- conv3_3
I1201 01:18:39.242940 13889 net.cpp:395] prelu3_3 -> conv3_3 (in-place)
I1201 01:18:39.243136 13889 net.cpp:150] Setting up prelu3_3
I1201 01:18:39.243165 13889 net.cpp:157] Top shape: 128 64 3 3 (73728)
I1201 01:18:39.243173 13889 net.cpp:165] Memory required for data: 70586368
I1201 01:18:39.243183 13889 layer_factory.hpp:77] Creating layer conv1_4
I1201 01:18:39.243216 13889 net.cpp:100] Creating Layer conv1_4
I1201 01:18:39.243226 13889 net.cpp:434] conv1_4 <- data_4
I1201 01:18:39.243240 13889 net.cpp:408] conv1_4 -> conv1_4
I1201 01:18:39.245262 13889 net.cpp:150] Setting up conv1_4
I1201 01:18:39.245301 13889 net.cpp:157] Top shape: 128 28 22 22 (1734656)
I1201 01:18:39.245309 13889 net.cpp:165] Memory required for data: 77524992
I1201 01:18:39.245324 13889 layer_factory.hpp:77] Creating layer prelu1_4
I1201 01:18:39.245350 13889 net.cpp:100] Creating Layer prelu1_4
I1201 01:18:39.245360 13889 net.cpp:434] prelu1_4 <- conv1_4
I1201 01:18:39.245370 13889 net.cpp:395] prelu1_4 -> conv1_4 (in-place)
I1201 01:18:39.245563 13889 net.cpp:150] Setting up prelu1_4
I1201 01:18:39.245578 13889 net.cpp:157] Top shape: 128 28 22 22 (1734656)
I1201 01:18:39.245584 13889 net.cpp:165] Memory required for data: 84463616
I1201 01:18:39.245594 13889 layer_factory.hpp:77] Creating layer pool1_4
I1201 01:18:39.245609 13889 net.cpp:100] Creating Layer pool1_4
I1201 01:18:39.245616 13889 net.cpp:434] pool1_4 <- conv1_4
I1201 01:18:39.245627 13889 net.cpp:408] pool1_4 -> pool1_4
I1201 01:18:39.245700 13889 net.cpp:150] Setting up pool1_4
I1201 01:18:39.245713 13889 net.cpp:157] Top shape: 128 28 11 11 (433664)
I1201 01:18:39.245719 13889 net.cpp:165] Memory required for data: 86198272
I1201 01:18:39.245725 13889 layer_factory.hpp:77] Creating layer conv2_4
I1201 01:18:39.245748 13889 net.cpp:100] Creating Layer conv2_4
I1201 01:18:39.245756 13889 net.cpp:434] conv2_4 <- pool1_4
I1201 01:18:39.245771 13889 net.cpp:408] conv2_4 -> conv2_4
I1201 01:18:39.247859 13889 net.cpp:150] Setting up conv2_4
I1201 01:18:39.247891 13889 net.cpp:157] Top shape: 128 48 9 9 (497664)
I1201 01:18:39.247900 13889 net.cpp:165] Memory required for data: 88188928
I1201 01:18:39.247915 13889 layer_factory.hpp:77] Creating layer prelu2_4
I1201 01:18:39.247926 13889 net.cpp:100] Creating Layer prelu2_4
I1201 01:18:39.247938 13889 net.cpp:434] prelu2_4 <- conv2_4
I1201 01:18:39.247949 13889 net.cpp:395] prelu2_4 -> conv2_4 (in-place)
I1201 01:18:39.248142 13889 net.cpp:150] Setting up prelu2_4
I1201 01:18:39.248162 13889 net.cpp:157] Top shape: 128 48 9 9 (497664)
I1201 01:18:39.248168 13889 net.cpp:165] Memory required for data: 90179584
I1201 01:18:39.248189 13889 layer_factory.hpp:77] Creating layer pool2_4
I1201 01:18:39.248222 13889 net.cpp:100] Creating Layer pool2_4
I1201 01:18:39.248231 13889 net.cpp:434] pool2_4 <- conv2_4
I1201 01:18:39.248242 13889 net.cpp:408] pool2_4 -> pool2_4
I1201 01:18:39.248316 13889 net.cpp:150] Setting up pool2_4
I1201 01:18:39.248328 13889 net.cpp:157] Top shape: 128 48 4 4 (98304)
I1201 01:18:39.248333 13889 net.cpp:165] Memory required for data: 90572800
I1201 01:18:39.248340 13889 layer_factory.hpp:77] Creating layer conv3_4
I1201 01:18:39.248358 13889 net.cpp:100] Creating Layer conv3_4
I1201 01:18:39.248366 13889 net.cpp:434] conv3_4 <- pool2_4
I1201 01:18:39.248376 13889 net.cpp:408] conv3_4 -> conv3_4
I1201 01:18:39.250442 13889 net.cpp:150] Setting up conv3_4
I1201 01:18:39.250476 13889 net.cpp:157] Top shape: 128 64 3 3 (73728)
I1201 01:18:39.250484 13889 net.cpp:165] Memory required for data: 90867712
I1201 01:18:39.250497 13889 layer_factory.hpp:77] Creating layer prelu3_4
I1201 01:18:39.250512 13889 net.cpp:100] Creating Layer prelu3_4
I1201 01:18:39.250521 13889 net.cpp:434] prelu3_4 <- conv3_4
I1201 01:18:39.250531 13889 net.cpp:395] prelu3_4 -> conv3_4 (in-place)
I1201 01:18:39.250705 13889 net.cpp:150] Setting up prelu3_4
I1201 01:18:39.250720 13889 net.cpp:157] Top shape: 128 64 3 3 (73728)
I1201 01:18:39.250725 13889 net.cpp:165] Memory required for data: 91162624
I1201 01:18:39.250735 13889 layer_factory.hpp:77] Creating layer conv1_5
I1201 01:18:39.250752 13889 net.cpp:100] Creating Layer conv1_5
I1201 01:18:39.250759 13889 net.cpp:434] conv1_5 <- data_5
I1201 01:18:39.250782 13889 net.cpp:408] conv1_5 -> conv1_5
I1201 01:18:39.252720 13889 net.cpp:150] Setting up conv1_5
I1201 01:18:39.252753 13889 net.cpp:157] Top shape: 128 28 22 22 (1734656)
I1201 01:18:39.252761 13889 net.cpp:165] Memory required for data: 98101248
I1201 01:18:39.252787 13889 layer_factory.hpp:77] Creating layer prelu1_5
I1201 01:18:39.252804 13889 net.cpp:100] Creating Layer prelu1_5
I1201 01:18:39.252812 13889 net.cpp:434] prelu1_5 <- conv1_5
I1201 01:18:39.252822 13889 net.cpp:395] prelu1_5 -> conv1_5 (in-place)
I1201 01:18:39.253007 13889 net.cpp:150] Setting up prelu1_5
I1201 01:18:39.253022 13889 net.cpp:157] Top shape: 128 28 22 22 (1734656)
I1201 01:18:39.253027 13889 net.cpp:165] Memory required for data: 105039872
I1201 01:18:39.253037 13889 layer_factory.hpp:77] Creating layer pool1_5
I1201 01:18:39.253048 13889 net.cpp:100] Creating Layer pool1_5
I1201 01:18:39.253056 13889 net.cpp:434] pool1_5 <- conv1_5
I1201 01:18:39.253077 13889 net.cpp:408] pool1_5 -> pool1_5
I1201 01:18:39.253155 13889 net.cpp:150] Setting up pool1_5
I1201 01:18:39.253168 13889 net.cpp:157] Top shape: 128 28 11 11 (433664)
I1201 01:18:39.253175 13889 net.cpp:165] Memory required for data: 106774528
I1201 01:18:39.253180 13889 layer_factory.hpp:77] Creating layer conv2_5
I1201 01:18:39.253201 13889 net.cpp:100] Creating Layer conv2_5
I1201 01:18:39.253209 13889 net.cpp:434] conv2_5 <- pool1_5
I1201 01:18:39.253221 13889 net.cpp:408] conv2_5 -> conv2_5
I1201 01:18:39.255297 13889 net.cpp:150] Setting up conv2_5
I1201 01:18:39.255334 13889 net.cpp:157] Top shape: 128 48 9 9 (497664)
I1201 01:18:39.255342 13889 net.cpp:165] Memory required for data: 108765184
I1201 01:18:39.255357 13889 layer_factory.hpp:77] Creating layer prelu2_5
I1201 01:18:39.255369 13889 net.cpp:100] Creating Layer prelu2_5
I1201 01:18:39.255378 13889 net.cpp:434] prelu2_5 <- conv2_5
I1201 01:18:39.255388 13889 net.cpp:395] prelu2_5 -> conv2_5 (in-place)
I1201 01:18:39.255568 13889 net.cpp:150] Setting up prelu2_5
I1201 01:18:39.255585 13889 net.cpp:157] Top shape: 128 48 9 9 (497664)
I1201 01:18:39.255592 13889 net.cpp:165] Memory required for data: 110755840
I1201 01:18:39.255614 13889 layer_factory.hpp:77] Creating layer pool2_5
I1201 01:18:39.255632 13889 net.cpp:100] Creating Layer pool2_5
I1201 01:18:39.255640 13889 net.cpp:434] pool2_5 <- conv2_5
I1201 01:18:39.255650 13889 net.cpp:408] pool2_5 -> pool2_5
I1201 01:18:39.255719 13889 net.cpp:150] Setting up pool2_5
I1201 01:18:39.255731 13889 net.cpp:157] Top shape: 128 48 4 4 (98304)
I1201 01:18:39.255738 13889 net.cpp:165] Memory required for data: 111149056
I1201 01:18:39.255743 13889 layer_factory.hpp:77] Creating layer conv3_5
I1201 01:18:39.255760 13889 net.cpp:100] Creating Layer conv3_5
I1201 01:18:39.255769 13889 net.cpp:434] conv3_5 <- pool2_5
I1201 01:18:39.255782 13889 net.cpp:408] conv3_5 -> conv3_5
I1201 01:18:39.257786 13889 net.cpp:150] Setting up conv3_5
I1201 01:18:39.257818 13889 net.cpp:157] Top shape: 128 64 3 3 (73728)
I1201 01:18:39.257827 13889 net.cpp:165] Memory required for data: 111443968
I1201 01:18:39.257839 13889 layer_factory.hpp:77] Creating layer prelu3_5
I1201 01:18:39.257854 13889 net.cpp:100] Creating Layer prelu3_5
I1201 01:18:39.257863 13889 net.cpp:434] prelu3_5 <- conv3_5
I1201 01:18:39.257872 13889 net.cpp:395] prelu3_5 -> conv3_5 (in-place)
I1201 01:18:39.258062 13889 net.cpp:150] Setting up prelu3_5
I1201 01:18:39.258093 13889 net.cpp:157] Top shape: 128 64 3 3 (73728)
I1201 01:18:39.258100 13889 net.cpp:165] Memory required for data: 111738880
I1201 01:18:39.258110 13889 layer_factory.hpp:77] Creating layer concat
I1201 01:18:39.258141 13889 net.cpp:100] Creating Layer concat
I1201 01:18:39.258149 13889 net.cpp:434] concat <- conv3_1
I1201 01:18:39.258158 13889 net.cpp:434] concat <- conv3_2
I1201 01:18:39.258165 13889 net.cpp:434] concat <- conv3_3
I1201 01:18:39.258172 13889 net.cpp:434] concat <- conv3_4
I1201 01:18:39.258177 13889 net.cpp:434] concat <- conv3_5
I1201 01:18:39.258186 13889 net.cpp:408] concat -> concat
I1201 01:18:39.329780 13889 net.cpp:150] Setting up concat
I1201 01:18:39.329824 13889 net.cpp:157] Top shape: 128 320 3 3 (368640)
I1201 01:18:39.329830 13889 net.cpp:165] Memory required for data: 113213440
I1201 01:18:39.329838 13889 layer_factory.hpp:77] Creating layer fc4
I1201 01:18:39.329859 13889 net.cpp:100] Creating Layer fc4
I1201 01:18:39.329867 13889 net.cpp:434] fc4 <- concat
I1201 01:18:39.329877 13889 net.cpp:408] fc4 -> fc4
I1201 01:18:39.344451 13889 net.cpp:150] Setting up fc4
I1201 01:18:39.344486 13889 net.cpp:157] Top shape: 128 256 (32768)
I1201 01:18:39.344496 13889 net.cpp:165] Memory required for data: 113344512
I1201 01:18:39.344509 13889 layer_factory.hpp:77] Creating layer prelu4
I1201 01:18:39.344522 13889 net.cpp:100] Creating Layer prelu4
I1201 01:18:39.344530 13889 net.cpp:434] prelu4 <- fc4
I1201 01:18:39.344545 13889 net.cpp:395] prelu4 -> fc4 (in-place)
I1201 01:18:39.344697 13889 net.cpp:150] Setting up prelu4
I1201 01:18:39.344712 13889 net.cpp:157] Top shape: 128 256 (32768)
I1201 01:18:39.344717 13889 net.cpp:165] Memory required for data: 113475584
I1201 01:18:39.344728 13889 layer_factory.hpp:77] Creating layer fc4_prelu4_0_split
I1201 01:18:39.344748 13889 net.cpp:100] Creating Layer fc4_prelu4_0_split
I1201 01:18:39.344756 13889 net.cpp:434] fc4_prelu4_0_split <- fc4
I1201 01:18:39.344766 13889 net.cpp:408] fc4_prelu4_0_split -> fc4_prelu4_0_split_0
I1201 01:18:39.344780 13889 net.cpp:408] fc4_prelu4_0_split -> fc4_prelu4_0_split_1
I1201 01:18:39.344794 13889 net.cpp:408] fc4_prelu4_0_split -> fc4_prelu4_0_split_2
I1201 01:18:39.344805 13889 net.cpp:408] fc4_prelu4_0_split -> fc4_prelu4_0_split_3
I1201 01:18:39.344816 13889 net.cpp:408] fc4_prelu4_0_split -> fc4_prelu4_0_split_4
I1201 01:18:39.344955 13889 net.cpp:150] Setting up fc4_prelu4_0_split
I1201 01:18:39.344969 13889 net.cpp:157] Top shape: 128 256 (32768)
I1201 01:18:39.344977 13889 net.cpp:157] Top shape: 128 256 (32768)
I1201 01:18:39.344985 13889 net.cpp:157] Top shape: 128 256 (32768)
I1201 01:18:39.344992 13889 net.cpp:157] Top shape: 128 256 (32768)
I1201 01:18:39.345000 13889 net.cpp:157] Top shape: 128 256 (32768)
I1201 01:18:39.345006 13889 net.cpp:165] Memory required for data: 114130944
I1201 01:18:39.345016 13889 layer_factory.hpp:77] Creating layer fc5_1
I1201 01:18:39.345034 13889 net.cpp:100] Creating Layer fc5_1
I1201 01:18:39.345062 13889 net.cpp:434] fc5_1 <- fc4_prelu4_0_split_0
I1201 01:18:39.345087 13889 net.cpp:408] fc5_1 -> fc5_1
I1201 01:18:39.345530 13889 net.cpp:150] Setting up fc5_1
I1201 01:18:39.345547 13889 net.cpp:157] Top shape: 128 64 (8192)
I1201 01:18:39.345554 13889 net.cpp:165] Memory required for data: 114163712
I1201 01:18:39.345567 13889 layer_factory.hpp:77] Creating layer prelu5_1
I1201 01:18:39.345582 13889 net.cpp:100] Creating Layer prelu5_1
I1201 01:18:39.345590 13889 net.cpp:434] prelu5_1 <- fc5_1
I1201 01:18:39.345600 13889 net.cpp:395] prelu5_1 -> fc5_1 (in-place)
I1201 01:18:39.345762 13889 net.cpp:150] Setting up prelu5_1
I1201 01:18:39.345774 13889 net.cpp:157] Top shape: 128 64 (8192)
I1201 01:18:39.345782 13889 net.cpp:165] Memory required for data: 114196480
I1201 01:18:39.345791 13889 layer_factory.hpp:77] Creating layer fc6_1
I1201 01:18:39.345806 13889 net.cpp:100] Creating Layer fc6_1
I1201 01:18:39.345814 13889 net.cpp:434] fc6_1 <- fc5_1
I1201 01:18:39.345824 13889 net.cpp:408] fc6_1 -> fc6_1
I1201 01:18:39.346009 13889 net.cpp:150] Setting up fc6_1
I1201 01:18:39.346022 13889 net.cpp:157] Top shape: 128 2 (256)
I1201 01:18:39.346029 13889 net.cpp:165] Memory required for data: 114197504
I1201 01:18:39.346040 13889 layer_factory.hpp:77] Creating layer loss_1
I1201 01:18:39.346518 13889 net.cpp:100] Creating Layer loss_1
I1201 01:18:39.346557 13889 net.cpp:434] loss_1 <- fc6_1
I1201 01:18:39.346573 13889 net.cpp:434] loss_1 <- target_1
I1201 01:18:39.346595 13889 net.cpp:408] loss_1 -> loss_1
I1201 01:18:39.346698 13889 net.cpp:150] Setting up loss_1
I1201 01:18:39.346714 13889 net.cpp:157] Top shape: (1)
I1201 01:18:39.346721 13889 net.cpp:160]     with loss weight 1
I1201 01:18:39.346760 13889 net.cpp:165] Memory required for data: 114197508
I1201 01:18:39.346773 13889 layer_factory.hpp:77] Creating layer fc5_2
I1201 01:18:39.346793 13889 net.cpp:100] Creating Layer fc5_2
I1201 01:18:39.346803 13889 net.cpp:434] fc5_2 <- fc4_prelu4_0_split_1
I1201 01:18:39.346819 13889 net.cpp:408] fc5_2 -> fc5_2
I1201 01:18:39.347301 13889 net.cpp:150] Setting up fc5_2
I1201 01:18:39.347323 13889 net.cpp:157] Top shape: 128 64 (8192)
I1201 01:18:39.347331 13889 net.cpp:165] Memory required for data: 114230276
I1201 01:18:39.347345 13889 layer_factory.hpp:77] Creating layer prelu5_2
I1201 01:18:39.347362 13889 net.cpp:100] Creating Layer prelu5_2
I1201 01:18:39.347371 13889 net.cpp:434] prelu5_2 <- fc5_2
I1201 01:18:39.347381 13889 net.cpp:395] prelu5_2 -> fc5_2 (in-place)
I1201 01:18:39.347546 13889 net.cpp:150] Setting up prelu5_2
I1201 01:18:39.347560 13889 net.cpp:157] Top shape: 128 64 (8192)
I1201 01:18:39.347568 13889 net.cpp:165] Memory required for data: 114263044
I1201 01:18:39.347578 13889 layer_factory.hpp:77] Creating layer fc6_2
I1201 01:18:39.347594 13889 net.cpp:100] Creating Layer fc6_2
I1201 01:18:39.347602 13889 net.cpp:434] fc6_2 <- fc5_2
I1201 01:18:39.347614 13889 net.cpp:408] fc6_2 -> fc6_2
I1201 01:18:39.347800 13889 net.cpp:150] Setting up fc6_2
I1201 01:18:39.347812 13889 net.cpp:157] Top shape: 128 2 (256)
I1201 01:18:39.347820 13889 net.cpp:165] Memory required for data: 114264068
I1201 01:18:39.347831 13889 layer_factory.hpp:77] Creating layer loss_2
I1201 01:18:39.347843 13889 net.cpp:100] Creating Layer loss_2
I1201 01:18:39.347851 13889 net.cpp:434] loss_2 <- fc6_2
I1201 01:18:39.347861 13889 net.cpp:434] loss_2 <- target_2
I1201 01:18:39.347870 13889 net.cpp:408] loss_2 -> loss_2
I1201 01:18:39.347930 13889 net.cpp:150] Setting up loss_2
I1201 01:18:39.347942 13889 net.cpp:157] Top shape: (1)
I1201 01:18:39.347949 13889 net.cpp:160]     with loss weight 1
I1201 01:18:39.347960 13889 net.cpp:165] Memory required for data: 114264072
I1201 01:18:39.347970 13889 layer_factory.hpp:77] Creating layer fc5_3
I1201 01:18:39.347982 13889 net.cpp:100] Creating Layer fc5_3
I1201 01:18:39.347990 13889 net.cpp:434] fc5_3 <- fc4_prelu4_0_split_2
I1201 01:18:39.348006 13889 net.cpp:408] fc5_3 -> fc5_3
I1201 01:18:39.348448 13889 net.cpp:150] Setting up fc5_3
I1201 01:18:39.348469 13889 net.cpp:157] Top shape: 128 64 (8192)
I1201 01:18:39.348476 13889 net.cpp:165] Memory required for data: 114296840
I1201 01:18:39.348489 13889 layer_factory.hpp:77] Creating layer prelu5_3
I1201 01:18:39.348505 13889 net.cpp:100] Creating Layer prelu5_3
I1201 01:18:39.348512 13889 net.cpp:434] prelu5_3 <- fc5_3
I1201 01:18:39.348526 13889 net.cpp:395] prelu5_3 -> fc5_3 (in-place)
I1201 01:18:39.348682 13889 net.cpp:150] Setting up prelu5_3
I1201 01:18:39.348695 13889 net.cpp:157] Top shape: 128 64 (8192)
I1201 01:18:39.348702 13889 net.cpp:165] Memory required for data: 114329608
I1201 01:18:39.348712 13889 layer_factory.hpp:77] Creating layer fc6_3
I1201 01:18:39.348731 13889 net.cpp:100] Creating Layer fc6_3
I1201 01:18:39.348738 13889 net.cpp:434] fc6_3 <- fc5_3
I1201 01:18:39.348749 13889 net.cpp:408] fc6_3 -> fc6_3
I1201 01:18:39.348924 13889 net.cpp:150] Setting up fc6_3
I1201 01:18:39.348937 13889 net.cpp:157] Top shape: 128 2 (256)
I1201 01:18:39.348944 13889 net.cpp:165] Memory required for data: 114330632
I1201 01:18:39.348955 13889 layer_factory.hpp:77] Creating layer loss_3
I1201 01:18:39.348966 13889 net.cpp:100] Creating Layer loss_3
I1201 01:18:39.348974 13889 net.cpp:434] loss_3 <- fc6_3
I1201 01:18:39.348984 13889 net.cpp:434] loss_3 <- target_3
I1201 01:18:39.348994 13889 net.cpp:408] loss_3 -> loss_3
I1201 01:18:39.349053 13889 net.cpp:150] Setting up loss_3
I1201 01:18:39.349066 13889 net.cpp:157] Top shape: (1)
I1201 01:18:39.349086 13889 net.cpp:160]     with loss weight 1
I1201 01:18:39.349097 13889 net.cpp:165] Memory required for data: 114330636
I1201 01:18:39.349107 13889 layer_factory.hpp:77] Creating layer fc5_4
I1201 01:18:39.349119 13889 net.cpp:100] Creating Layer fc5_4
I1201 01:18:39.349134 13889 net.cpp:434] fc5_4 <- fc4_prelu4_0_split_3
I1201 01:18:39.349150 13889 net.cpp:408] fc5_4 -> fc5_4
I1201 01:18:39.349580 13889 net.cpp:150] Setting up fc5_4
I1201 01:18:39.349594 13889 net.cpp:157] Top shape: 128 64 (8192)
I1201 01:18:39.349601 13889 net.cpp:165] Memory required for data: 114363404
I1201 01:18:39.349642 13889 layer_factory.hpp:77] Creating layer prelu5_4
I1201 01:18:39.349658 13889 net.cpp:100] Creating Layer prelu5_4
I1201 01:18:39.349668 13889 net.cpp:434] prelu5_4 <- fc5_4
I1201 01:18:39.349678 13889 net.cpp:395] prelu5_4 -> fc5_4 (in-place)
I1201 01:18:39.349843 13889 net.cpp:150] Setting up prelu5_4
I1201 01:18:39.349856 13889 net.cpp:157] Top shape: 128 64 (8192)
I1201 01:18:39.349862 13889 net.cpp:165] Memory required for data: 114396172
I1201 01:18:39.349874 13889 layer_factory.hpp:77] Creating layer fc6_4
I1201 01:18:39.349889 13889 net.cpp:100] Creating Layer fc6_4
I1201 01:18:39.349896 13889 net.cpp:434] fc6_4 <- fc5_4
I1201 01:18:39.349911 13889 net.cpp:408] fc6_4 -> fc6_4
I1201 01:18:39.350106 13889 net.cpp:150] Setting up fc6_4
I1201 01:18:39.350127 13889 net.cpp:157] Top shape: 128 2 (256)
I1201 01:18:39.350134 13889 net.cpp:165] Memory required for data: 114397196
I1201 01:18:39.350147 13889 layer_factory.hpp:77] Creating layer loss_4
I1201 01:18:39.350162 13889 net.cpp:100] Creating Layer loss_4
I1201 01:18:39.350169 13889 net.cpp:434] loss_4 <- fc6_4
I1201 01:18:39.350179 13889 net.cpp:434] loss_4 <- target_4
I1201 01:18:39.350190 13889 net.cpp:408] loss_4 -> loss_4
I1201 01:18:39.350250 13889 net.cpp:150] Setting up loss_4
I1201 01:18:39.350260 13889 net.cpp:157] Top shape: (1)
I1201 01:18:39.350267 13889 net.cpp:160]     with loss weight 1
I1201 01:18:39.350278 13889 net.cpp:165] Memory required for data: 114397200
I1201 01:18:39.350286 13889 layer_factory.hpp:77] Creating layer fc5_5
I1201 01:18:39.350302 13889 net.cpp:100] Creating Layer fc5_5
I1201 01:18:39.350311 13889 net.cpp:434] fc5_5 <- fc4_prelu4_0_split_4
I1201 01:18:39.350322 13889 net.cpp:408] fc5_5 -> fc5_5
I1201 01:18:39.350756 13889 net.cpp:150] Setting up fc5_5
I1201 01:18:39.350771 13889 net.cpp:157] Top shape: 128 64 (8192)
I1201 01:18:39.350777 13889 net.cpp:165] Memory required for data: 114429968
I1201 01:18:39.350790 13889 layer_factory.hpp:77] Creating layer prelu5_5
I1201 01:18:39.350811 13889 net.cpp:100] Creating Layer prelu5_5
I1201 01:18:39.350821 13889 net.cpp:434] prelu5_5 <- fc5_5
I1201 01:18:39.350831 13889 net.cpp:395] prelu5_5 -> fc5_5 (in-place)
I1201 01:18:39.350991 13889 net.cpp:150] Setting up prelu5_5
I1201 01:18:39.351004 13889 net.cpp:157] Top shape: 128 64 (8192)
I1201 01:18:39.351011 13889 net.cpp:165] Memory required for data: 114462736
I1201 01:18:39.351022 13889 layer_factory.hpp:77] Creating layer fc6_5
I1201 01:18:39.351035 13889 net.cpp:100] Creating Layer fc6_5
I1201 01:18:39.351043 13889 net.cpp:434] fc6_5 <- fc5_5
I1201 01:18:39.351058 13889 net.cpp:408] fc6_5 -> fc6_5
I1201 01:18:39.351253 13889 net.cpp:150] Setting up fc6_5
I1201 01:18:39.351272 13889 net.cpp:157] Top shape: 128 2 (256)
I1201 01:18:39.351279 13889 net.cpp:165] Memory required for data: 114463760
I1201 01:18:39.351291 13889 layer_factory.hpp:77] Creating layer loss_5
I1201 01:18:39.351302 13889 net.cpp:100] Creating Layer loss_5
I1201 01:18:39.351310 13889 net.cpp:434] loss_5 <- fc6_5
I1201 01:18:39.351320 13889 net.cpp:434] loss_5 <- target_5
I1201 01:18:39.351330 13889 net.cpp:408] loss_5 -> loss_5
I1201 01:18:39.351390 13889 net.cpp:150] Setting up loss_5
…
